NeuralMidiFXPlugin/NeuralMidiFXPlugin/PretrainedModelsSerialization/serializedONNX/model_3_output_layer.onnx (onnx, 60356 bytes, 2 tensors)

Linear.bias f4 [27]
0	0xbc5bcf2d	-0.013416094
1	0xbcc3970e	-0.02387574
2	0xba72d28e	-0.00092629425
3	0xbd249936	-0.040185176
4	0xbd02fe99	-0.031981084
5	0xbcffa165	-0.031204889
6	0xbcd6f103	-0.02623797
7	0xbd1afcf3	-0.037838887
8	0xbd12c7c5	-0.035835046
9	0xbcc43791	-0.023952277
10	0xbc444767	-0.011979914
11	0xbc6f00f4	-0.01458763
12	0xbcca74e7	-0.024713947
13	0xbcb4af7b	-0.022056332
14	0xbcb8830e	-0.02252343
15	0xbc8e31d9	-0.017357754
16	0xbcd02e32	-0.025412653
17	0xbcbb15cf	-0.022837548
18	0xbc0e2a19	-0.008677029
19	0xba9f8c12	-0.0012172482
20	0xbc075c2b	-0.008261721
21	0x3aec4da9	0.0018028516
22	0xba494317	-0.00076775387
23	0xbb8cfa8b	-0.004302328
24	0x3b8081aa	0.003921707
25	0x3b471fbe	0.003038391
26	0xbc0066ed	-0.007837039

onnx::MatMul_6 f4 [512, 27]
0	0xbcafbcf6	-0.021452408
1	0x3c974125	0.01846368
2	0xbdaddd75	-0.08489505
3	0x3c48dfcc	0.012260389
4	0xbdc6afb8	-0.097014844
5	0xbdc30b0a	-0.0952359
6	0xbdfa3a00	-0.12218094
7	0xbccea99e	-0.025227364
8	0xbdb65268	-0.089024365
9	0x3bdccc24	0.0067382026
10	0x3d6d91c5	0.058000345
11	0xbd868a7b	-0.06569382
12	0xbcbf9bd9	-0.023389744
13	0xbd1c3ae2	-0.038142093
14	0xbc534e2b	-0.012897055
15	0xbd24e5df	-0.040258285
16	0xbceebf97	-0.029144092
17	0xbd0f4ab1	-0.03498334
18	0xbc828e5c	-0.015937023
19	0xbc098cd0	-0.008395389
20	0xbc51e32f	-0.012810512
21	0x3b8f3d7a	0.0043713422
22	0xbb2ed5ae	-0.0026677656
23	0xbc752d96	-0.014964482
24	0x3ba22c0d	0.004949099
25	0xbc96af90	-0.018394262
26	0xbbf68598	-0.00752325
27	0xbe108bfc	-0.141159
28	0xbc9975e3	-0.01873297
29	0xbced63b8	-0.028978214
30	0xbd2fa3d4	-0.042880848
31	0xbd3c38ba	-0.045952536
32	0x3cff6390	0.031175405
33	0xbd4cc242	-0.049989946
34	0xbdf10979	-0.11769385
35	0xbddc74f6	-0.10764496
36	0xbdd07dca	-0.10180242
37	0x3d6a2100	0.057160378
38	0x3d247f4c	0.040160462
39	0xbd3f6c6d	-0.046734262
40	0xbdc02ff9	-0.0938415
41	0xbd8c0caf	-0.06838357
42	0xbd4ee917	-0.05051526
43	0xbde711bc	-0.112826794
44	0x3d289a7e	0.04116296
45	0x3b2a2f61	0.0025968181
46	0xbb0a6537	-0.0021117458
47	0xbc2169fd	-0.00985193
48	0x3a85a07b	0.0010194922
49	0xbabfe233	-0.0014639556
50	0xbc25533e	-0.010090647
51	0xbb723438	-0.0036957394
52	0xbba44cc8	-0.005014036
53	0xbba127dc	-0.0049180817
54	0x3d349527	0.044087555
55	0xbc8d59bf	-0.017254708
56	0x3dc4bd45	0.09606413
57	0xbc4cb90b	-0.01249529
58	0x3d79708c	0.06089835
59	0x3dd0c66c	0.10194096
60	0xbd3e88a7	-0.04651704
61	0x3ddcd552	0.10782875
62	0x3d31cb72	0.04340691
63	0x3d8ca94a	0.06868227
64	0xbd641b38	-0.05569002
65	0x3ca6b3ad	0.020349348
66	0xbd75cde5	-0.06001081
67	0xbd849265	-0.06473235
68	0x3d7e0f48	0.062026292
69	0xbcdbf3ad	-0.026849592
70	0xbca73d34	-0.020414926
71	0x3dc06add	0.093953826
72	0xbc553706	-0.013013607
73	0xbc28e64d	-0.010308814
74	0xbc375e30	-0.01119189
75	0xbc20b78c	-0.009809386
76	0x3bdaa502	0.0066725025
77	0xbc8d3dee	-0.017241444
78	0xbc621728	-0.013799466
79	0x3c480d7d	0.012210247
80	0xbc244bac	-0.010027807
81	0x3dadb999	0.084826656
82	0xbcb17376	-0.021661501
83	0x3d0db265	0.03459396
84	0x3dcd99f3	0.10039129
85	0x3dc2e44a	0.09516199
86	0x3dce5500	0.10074806
87	0xbd6d891e	-0.057992093
88	0x3da2839f	0.07935261
89	0x3d710c61	0.058849696
90	0xbd150d16	-0.036389433
91	0x3b132a76	0.0022455729
92	0xbd47e402	-0.04880143
93	0x3d554704	0.05206968
94	0x3d3552ec	0.044268534
95	0x3dab92e2	0.08377625
96	0xbca16f41	-0.01970637
97	0x3d43c660	0.047796607
98	0xbd4d1f0e	-0.050078444
99	0xbbc362b4	-0.005962694
100	0xbc2ffbad	-0.0107411565
101	0xbb9e3a90	-0.0048287585
102	0x3a91d741	0.0011126773
103	0xbbc65597	-0.0060526836
104	0xbbae53a0	-0.0053200275
105	0x3b076a53	0.002066274
106	0xbbd44ca1	-0.0064788614
107	0xbb89253d	-0.0041853474
108	0x3d7d27e2	0.061805613
109	0xbbbfc7bc	-0.0058526676
110	0x3bb89cb8	0.0056339167
111	0xbcd76c81	-0.026296856
112	0xbc9bd523	-0.01902253
113	0x3ca2207a	0.019790877
114	0xbdde8006	-0.10864262
115	0x3d6d3d9f	0.057920095
116	0x3ba41da6	0.005008417
117	0xbbb233dd	-0.0054383115
118	0x3d98e07b	0.07464691
119	0xbd45f950	-0.048333466
120	0xbc4b1c44	-0.012396876
121	0xbd88405e	-0.06652902
122	0x3c5adf62	0.013358923
123	0xbb469c4b	-0.003030556
124	0xbca9f5e2	-0.020747129
125	0x3b4b7e7e	0.0031050737
126	0xbd1733f0	-0.036914766
127	0xbcfdb0ef	-0.030968158
128	0xbcbbd098	-0.022926614
129	0x3c4b06f5	0.012391795
130	0x3bc7824d	0.006088531
131	0x3b8bc73a	0.004265693
132	0xbc171772	-0.009221898
133	0xbc4c853c	-0.012482937
134	0xbc144cd2	-0.0090515185
135	0x3c3656a8	0.011129059
136	0x3c7173ab	0.01473705
137	0xbe1f2228	-0.15540373
138	0x3b8c617d	0.0042840824
139	0xbd86a1f4	-0.06573859
140	0xbc680ad9	-0.0141627425
141	0xbc660f7a	-0.014041776
142	0xbe01dcef	-0.12681936
143	0xbd95d841	-0.07316638
144	0xb8f00350	-0.00011444709
145	0xbdb6adb8	-0.08919853
146	0xbd823685	-0.06358055
147	0x3d162b52	0.036662407
148	0xbde27c61	-0.1105888
149	0x3c607804	0.013700489
150	0xbcfa45d9	-0.030550884
151	0xbd6dd36e	-0.058062963
152	0xbd18ece6	-0.0373353
153	0x3cb4957b	0.022043934
154	0xbb4aa337	-0.0030920038
155	0x3b8e42b9	0.00434145
156	0xbc6393d6	-0.013890227
157	0x3aff778c	0.0019490584
158	0x3bbb547a	0.0057168575
159	0xbbd4b591	-0.006491371
160	0xbb500b18	-0.0031744894
161	0x3c661121	0.01404217
162	0xbb933b3f	-0.0044931467
163	0x3d1f8ff2	0.038955636
164	0x3d392224	0.045198575
165	0x3d58c9f6	0.05292698
166	0x3bf9ea3b	0.0076267994
167	0x3ce09a14	0.02741722
168	0x3d38c942	0.04511381
169	0x3dc14d11	0.094385274
170	0x3d840588	0.064463675
171	0xbd4495f5	-0.047994573
172	0x3c31ad80	0.010844588
173	0x3d4df2d8	0.050280422
174	0xbd7aa628	-0.061193615
175	0x3cdcc201	0.026947977
176	0xbd949c19	-0.07256336
177	0x3d8544ef	0.06507289
178	0x3b1512e0	0.0022746846
179	0x3d9c7595	0.076396145
180	0xbc94739c	-0.018121533
181	0xbc4019ed	-0.011724931
182	0xbccd29f0	-0.025044411
183	0xbcb13759	-0.021632837
184	0x3a7e9b37	0.000971246
185	0xbba338ba	-0.0049811276
186	0x3a7dd3e4	0.0009682758
187	0xbafcfdf4	-0.0019301758
188	0xbceb8c83	-0.028753525
189	0x3cf59dc8	0.029982463
190	0x3ca87d91	0.020567687
191	0xbccb3bfb	-0.024808874
192	0x3c9d668a	0.019213933
193	0x3d885ddd	0.06658528
194	0x3c180107	0.009277589
195	0x3d93d2e0	0.072179556
196	0x3cdb0791	0.026737006
197	0xbdf4df93	-0.11956706
198	0x3bb2a190	0.0054513887
199	0x3d9ad3fc	0.07559964
200	0xbce21a13	-0.027600324
201	0xbd508196	-0.050904833
202	0x3d6ed458	0.058307976
203	0xbcf4a9cb	-0.02986612
204	0x3da6508b	0.08120831
205	0xbda23bb6	-0.07921545
206	0xbd2e1781	-0.042502884
207	0x3ccf0852	0.025272522
208	0x3ab7c976	0.0014021832
209	0x3cbf9752	0.023387585
210	0x3c263417	0.010144255
211	0xbbb30b99	-0.005464029
212	0x3ad40626	0.0016176149
213	0x3bc0ee99	0.005887818
214	0xbb0640bc	-0.0020485362
215	0x3c4e4b90	0.012591258
216	0x3d75dfd6	0.06002792
217	0x3bb35eb5	0.0054739364
218	0x3cb11f33	0.021621322
219	0x3df2b04f	0.118500344
220	0x3cd0a3b2	0.025468681
221	0xbdae945d	-0.08524392
222	0xbdcbb988	-0.09947497
223	0xbd957457	-0.07297581
224	0x3c8a820f	0.01690772
225	0xbcee32d4	-0.029076971
226	0xbd37fd13	-0.044919085
227	0x3b998c28	0.0046858974
228	0xbd08970d	-0.03334718
229	0xbcd959fd	-0.026532168
230	0xbab0309c	-0.0013442221
231	0x3d604eb3	0.054762553
232	0xbdcf52b4	-0.10123196
233	0xbc976626	-0.018481325
234	0x3cab2cd7	0.020895405
235	0xbb9512ce	-0.004549361
236	0xbbf5b10c	-0.0074979123
237	0x3c401849	0.01172454
238	0xbcc0f066	-0.02355213
239	0xbca5fc44	-0.020261891
240	0x3c58eb57	0.013239703
241	0xbc15b355	-0.009136994
242	0x3b3c3ac2	0.0028721546
243	0xbc2fb46c	-0.010724168
244	0xbd6e1354	-0.0581239
245	0xbdc879fd	-0.097888924
246	0xbdcc5d54	-0.099787384
247	0xbcb8a64b	-0.022540232
248	0x3d82e89d	0.06392024
249	0x3cf6845b	0.030092409
250	0xbc59b32c	-0.013287347
251	0xbc8b2315	-0.016984502
252	0x3d6ea9dc	0.05826746
253	0xbd79eaf4	-0.061015084
254	0xbb0bebae	-0.0021350193
255	0xbd64f834	-0.055900767
