NeuralMidiFXPlugin/NeuralMidiFXPlugin/PretrainedModelsSerialization/serializedONNX/model_4_output_layer.onnx (onnx, 18882 bytes, 2 tensors)

Linear.bias f4 [27]
0	0xbdf8ede7	-0.12154751
1	0xbde2303b	-0.110443555
2	0xbe057a27	-0.13034879
3	0xbe6f2d13	-0.23357038
4	0xbe011249	-0.12604631
5	0xbe42a057	-0.19006477
6	0xbdb595dd	-0.08866475
7	0xbe5a0af7	-0.21293245
8	0xbe5def3d	-0.21673293
9	0xbddeeb5a	-0.108847335
10	0xbd6b7094	-0.05748041
11	0xbdc7122f	-0.09720265
12	0xbe19569e	-0.14974448
13	0xbded5a59	-0.11589498
14	0xbe0546ea	-0.13015333
15	0xbda0f2c3	-0.07858803
16	0xbe0f29fb	-0.13980858
17	0xbdf80a0a	-0.1211129
18	0xbda796a7	-0.081830315
19	0x3b88eb2a	0.0041784244
20	0xbd4ee2fa	-0.05050943
21	0xbc264d14	-0.010150213
22	0xbd00ddfe	-0.03146171
23	0xbcb76098	-0.022384927
24	0xbbef1dff	-0.007297277
25	0xbb0f93cd	-0.0021908164
26	0xbc8afa97	-0.016965194

onnx::MatMul_6 f4 [128, 27]
0	0xbe0892c3	-0.13337235
1	0x3e58b9b5	0.21164592
2	0x3c7cf8eb	0.015440206
3	0x3e10ba32	0.14133528
4	0x3e84163f	0.25798222
5	0x3e2de3b5	0.16981395
6	0xbdc403b9	-0.095710225
7	0x3d3a0e0a	0.045423545
8	0x3ca14eb1	0.019690843
9	0xbccfb39f	-0.025354205
10	0x3e3e963e	0.18612
11	0x3daa53a7	0.08316737
12	0x3e08e78e	0.13369581
13	0x3e2adeec	0.166866
14	0x3e31f431	0.17378308
15	0x3db1337f	0.086524
16	0x3dea6c97	0.11446493
17	0x3da6d77e	0.081465706
18	0xbc25a501	-0.010110141
19	0xbc4ed70a	-0.0126245115
20	0xbcd3c0fb	-0.025848856
21	0x3ab65d06	0.0013913221
22	0xbae8c979	-0.0017760239
23	0xbc0a2932	-0.008432673
24	0xbc2a4566	-0.010392522
25	0xbbb50d93	-0.0055253
26	0xbb809548	-0.0039240457
27	0xbe294d21	-0.16533329
28	0xbcf279d7	-0.029599113
29	0x3c796640	0.015222132
30	0xbccd78cf	-0.02508202
31	0x3de062c2	0.109563366
32	0xbd09a959	-0.033608768
33	0xbd3bd590	-0.045857966
34	0xbe92dea8	-0.28685498
35	0xbc266d79	-0.010157936
36	0xbe285a82	-0.16440776
37	0xbd2e1490	-0.04250008
38	0x3d1d74fc	0.038441643
39	0xbdb88c70	-0.09011161
40	0x3d219a0a	0.039453544
41	0xbe092050	-0.13391232
42	0xbd2a30f2	-0.041550584
43	0xbe58f5fd	-0.21187587
44	0xbce404e0	-0.027834356
45	0x3c40e2c3	0.011772814
46	0x3c1ccb5b	0.009569968
47	0xbb549779	-0.0032438918
48	0x3bb17cdb	0.0054164953
49	0xba8e6b55	-0.0010865728
50	0xbc12b464	-0.008954141
51	0xbba04e79	-0.004892167
52	0xbc1571cc	-0.00912137
53	0x3bd6413e	0.006538539
54	0xbd805fae	-0.062682495
55	0x3c735f60	0.014854282
56	0x3d8fc347	0.07019668
57	0xbd2068f6	-0.0391626
58	0xbd1224c3	-0.03567959
59	0x3d5d5f50	0.054045975
60	0xbd7cd95e	-0.061730735
61	0xbc92db7c	-0.017926924
62	0x3cd77afa	0.026303757
63	0xbdcee5e6	-0.101024434
64	0xbc604c09	-0.013690003
65	0x3ca734f0	0.020410985
66	0xbd0a3361	-0.033740405
67	0xbd4ed67e	-0.050497524
68	0xbd4feba3	-0.05076183
69	0xbd5b7166	-0.053574942
70	0xbc28be22	-0.010299237
71	0x3ca4a4f8	0.020098194
72	0xbb017c15	-0.0019757797
73	0xbb5eb9ee	-0.0033985334
74	0xbca9208d	-0.020645404
75	0x3c00e11c	0.00786617
76	0xb91d33af	-0.0001499194
77	0xbc4bfc5c	-0.012450304
78	0xbbb210d7	-0.0054341364
79	0xbc5dc9d7	-0.013536892
80	0x3b8653e6	0.004099357
81	0xbe5c4a52	-0.21512726
82	0xbd879bf9	-0.06621546
83	0x3df743cf	0.1207348
84	0xbd2e44cf	-0.04254609
85	0xba469f9e	-0.00075768854
86	0x3cbf92fe	0.023385521
87	0x3d291334	0.04127808
88	0x3c023a01	0.0079483995
89	0x3a71197c	0.0009197218
90	0xbe3fcb23	-0.18729834
91	0xbd500db4	-0.05079432
92	0x3d76c10c	0.060242698
93	0xbd18fd8c	-0.037351176
94	0x3c4cdafc	0.012503382
95	0x3d5f10eb	0.054459494
96	0x3cf10d9e	0.029425438
97	0xbc0fa5d6	-0.008767566
98	0xbd2c1e13	-0.04202087
99	0x3c6450e4	0.013935301
100	0x3c315a08	0.010824688
101	0x3bb6aec7	0.0055750343
102	0x3c0363e0	0.0080194175
103	0x38ed8957	0.00011326622
104	0xbc122628	-0.00892023
105	0xbb3be8a1	-0.0028672593
106	0xbc0dd694	-0.008657116
107	0x3c9053de	0.017618116
108	0x3cf7c1f5	0.030243853
109	0x3dd40cd1	0.10354007
110	0xbd43ecf7	-0.04783341
111	0x3d53c5bb	0.051702242
112	0x3d03c892	0.0321737
113	0xbd563fc3	-0.0523069
114	0x3d7e755c	0.06212364
115	0xbdc29467	-0.09500962
116	0xbe01274d	-0.12612648
117	0x3d0ec9fe	0.034860604
118	0x3db9181d	0.09037802
119	0x3b305d9c	0.0026911264
120	0x3d8f094a	0.069841936
121	0xbd081eec	-0.033232614
122	0xbcba7dfe	-0.022765156
123	0xbb732f9c	-0.0037107235
124	0xbde911ed	-0.11380372
125	0xbd84851b	-0.064707
126	0xbc07edb6	-0.008296421
127	0x3beeea37	0.007291104
128	0xbbae1852	-0.005312958
129	0x3b99bb08	0.0046914853
130	0xb86f3e64	-5.7040146e-05
131	0xbc10edbe	-0.008845745
132	0xbbf5d2ee	-0.0075019514
133	0xbbdc27ff	-0.006718635
134	0xbaaac8ac	-0.0013029776
135	0xbd0c19ea	-0.0342044
136	0x3c9dc75d	0.019260103
137	0xbddf0d30	-0.10891187
138	0xbbd7be95	-0.0065839984
139	0xbd465126	-0.048417233
140	0x3d9eb0b8	0.0774855
141	0x3e3cc505	0.18434532
142	0x3db13431	0.08652533
143	0xbd54f135	-0.051987845
144	0x3c510e71	0.012759791
145	0x3d13e3f2	0.036106057
146	0xbd68f424	-0.056873456
147	0x3d428891	0.04749352
148	0xbd944ef1	-0.072416194
149	0x3e066be9	0.13127102
150	0x3e5a25c7	0.21303473
151	0x3de26140	0.11053705
152	0x3c76194c	0.01502068
153	0x3ba35392	0.0049843276
154	0xbad951e6	-0.0016580194
155	0xbbdda60c	-0.006764179
156	0x3bc9c0ef	0.0061570327
157	0xba338b88	-0.00068491
158	0xbc2088a5	-0.009798204
159	0xbafd760b	-0.0019337548
160	0xbc13a45a	-0.009011352
161	0x3c0311b7	0.007999829
162	0xbd70a21b	-0.058748346
163	0x3e042e67	0.12908326
164	0xbba221fd	-0.0049478994
165	0x3e0c4bcc	0.13700789
166	0x3ed19233	0.40931854
167	0x3e4687b0	0.19387698
168	0x3e6cd819	0.2312931
169	0x3deec421	0.11658502
170	0x3d57f0a0	0.052719712
171	0x3ce493fd	0.027902598
172	0x3e15cba2	0.14628461
173	0x3d8fb75a	0.070173934
174	0x3e40b274	0.18818074
175	0x3ea9bb38	0.3315065
176	0x3e4a5f44	0.19762903
177	0x3e766cfe	0.24065015
178	0x3e30a551	0.17250563
179	0x3dd3ccf3	0.10341825
180	0x3a9bc9d3	0.001188571
181	0x3a367b0d	0.0006961085
182	0xbc16f308	-0.009213217
183	0x3bafac17	0.005361091
184	0xbb32d8a9	-0.0027289784
185	0xbbebe7df	-0.007199272
186	0xbb98002b	-0.004638692
187	0xbbc53072	-0.006017738
188	0x3c6813b3	0.014164853
189	0xbe5c35ab	-0.21504848
190	0xbd1feeb5	-0.03904601
191	0x3cb3eaaa	0.021962482
192	0xbdfade97	-0.12249487
193	0xbcac0f6a	-0.021003444
194	0x3d69cc12	0.057079382
195	0x3dd41093	0.10354724
196	0xbe3fa02c	-0.18713444
197	0x3dc15e27	0.09441786
198	0xbe2af722	-0.16695836
199	0xbd32c8e9	-0.043648634
200	0x39c8ea5e	0.0003832159
201	0xbe3e74c4	-0.1859923
202	0xbc65f2df	-0.014034956
203	0x3d3190a4	0.04335083
204	0x3d4e5a9c	0.05037938
205	0xbe00d8bc	-0.12582678
206	0xba774d76	-0.0009433845
207	0x3c9a2acc	0.018819235
208	0x39d848a0	0.0004125284
209	0x3b1468d4	0.002264549
210	0x3c1ff130	0.009762093
211	0x376ed0df	1.4234537e-05
212	0xbc08bb3a	-0.00834542
213	0xb5238667	-6.0917813e-07
214	0xbbed0f20	-0.007234469
215	0x3c930282	0.017945532
216	0xbd56e4ae	-0.05246418
217	0x3c33aba9	0.01096622
218	0x3d4a2ec9	0.049361024
219	0xbe2b0e6c	-0.1670472
220	0xbd831153	-0.06399789
221	0x3d76f533	0.060292434
222	0x3c4cb53b	0.012494381
223	0xbdbced23	-0.09224918
224	0xbdcef656	-0.101055786
225	0xbc8ba6b3	-0.017047262
226	0x3be6a1cf	0.007038332
227	0x3c7b3878	0.015333287
228	0xbe07df42	-0.1326876
229	0xbdb256c5	-0.08707956
230	0xbb59a61f	-0.0033210588
231	0x3d06bec4	0.032896772
232	0xbd8c5ad0	-0.068532586
233	0xbdae582a	-0.0851291
234	0x3ca33729	0.019923763
235	0x3cbcc3ef	0.023042647
236	0x3b7a9e7d	0.003824144
237	0x3c169d00	0.009192705
238	0x3ab8ce33	0.0014099538
239	0xbc0dc8a4	-0.0086537935
240	0x3bf1b11a	0.0073758485
241	0xbc0e4855	-0.0086842375
242	0x3cbce6b7	0.023059232
243	0xbe12e287	-0.14344226
244	0xbd7f583a	-0.06234
245	0xbbe2337e	-0.006903111
246	0x3d33c453	0.0438884
247	0x3b57355d	0.0032838203
248	0xbe3e1e1e	-0.18566176
249	0x3cc7db28	0.024396494
250	0xbdae63ce	-0.0851513
251	0xbd4515f3	-0.048116636
252	0xbdda10ed	-0.106477596
253	0x3ba69bb3	0.0050844788
254	0x3d4350fd	0.04768466
255	0x3d829969	0.06376917
