NeuralMidiFXPlugin/NeuralMidiFXPlugin/PretrainedModelsSerialization/serializedONNX/model_2_output_layer.onnx (onnx, 60356 bytes, 2 tensors)

Linear.bias f4 [27]
0	0xbd85ff6a	-0.06542857
1	0xbc12e6bb	-0.008966143
2	0x3d402740	0.04691243
3	0xbe1af23a	-0.15131465
4	0xbe0a16b7	-0.13485228
5	0xbe2127cd	-0.15737839
6	0xbe17b108	-0.14813626
7	0xbe3f8a26	-0.18705043
8	0xbdd2bb90	-0.10289681
9	0xbdc27823	-0.094955705
10	0xbd45c2bf	-0.048281427
11	0xbd22f374	-0.039782956
12	0xbdcfe321	-0.10150743
13	0xbdc66aad	-0.096883155
14	0xbdc51a29	-0.0962413
15	0xbdaad01f	-0.08340477
16	0xbdfc92d6	-0.12332694
17	0xbdad0740	-0.084486485
18	0xbd004444	-0.031315103
19	0x3b32854a	0.002724009
20	0xbd0bea6d	-0.034159113
21	0xbc0cd2b1	-0.008595155
22	0xbc074aa9	-0.008257546
23	0xbbbcc5c4	-0.00576088
24	0x39d592d4	0.0004073592
25	0x3b23be06	0.002498509
26	0xbbf0feab	-0.0073545775

onnx::MatMul_6 f4 [512, 27]
0	0xbd06dc69	-0.032925043
1	0x3da6ca12	0.081440106
2	0xbdf68ec4	-0.12038949
3	0xbd608c45	-0.05482127
4	0xbdac9cb5	-0.08428327
5	0xbdd2400e	-0.10266124
6	0xbd85665e	-0.065136656
7	0xbe050c9a	-0.12993088
8	0xbd45fdef	-0.048337873
9	0x3cac716d	0.02105018
10	0x3d1423d8	0.036166996
11	0xbd4ffa8e	-0.050776057
12	0xbd7f06ab	-0.06226222
13	0xbde020b1	-0.109437354
14	0xbdc68638	-0.09693569
15	0x3c65ac10	0.014018074
16	0xbd503b98	-0.050838083
17	0xbbe10f87	-0.006868306
18	0x3a83752c	0.0010029427
19	0x3c37144b	0.011174272
20	0x3bfa0cbf	0.007630914
21	0xb9dd38a1	-0.00042194597
22	0x3b367afb	0.0027844298
23	0x3a990d97	0.0011677024
24	0x39c4fd21	0.0003757263
25	0xb9ca6f5c	-0.00038611412
26	0x3bbf04c4	0.0058294255
27	0xbd9bd450	-0.07608855
28	0xbccfaf02	-0.025352005
29	0x3cf09e42	0.029372338
30	0xbbcec677	-0.00631028
31	0xbd3f62f1	-0.046725217
32	0x3c85c9de	0.01633161
33	0x3d6335e4	0.055471316
34	0x3950c3df	0.00019909393
35	0xbba53bab	-0.0050425134
36	0xbc960c5a	-0.018316437
37	0xbcb4d718	-0.022075221
38	0xbba18dde	-0.004930242
39	0xbdc2000f	-0.094726674
40	0x3d931fa5	0.0718377
41	0xbdac5d34	-0.084162146
42	0x3bdcfc99	0.006743979
43	0xbe00b98d	-0.12570782
44	0x3c95e749	0.018298762
45	0xb845c0a2	-4.7147863e-05
46	0xbb81de50	-0.0039632693
47	0xbb2ccd81	-0.0026367607
48	0xbaf6664f	-0.0018798801
49	0x3aa175f8	0.0012318483
50	0xbaa735e5	-0.0012757151
51	0xb9714b05	-0.00023011498
52	0xbb2baed3	-0.0026196733
53	0xbbd23185	-0.0064145946
54	0xbd5906a9	-0.052984867
55	0x3cbfae12	0.023398433
56	0xbdd3b36f	-0.103369586
57	0xbccd6e73	-0.02507708
58	0xbd1c319f	-0.03813326
59	0xbd46039e	-0.048343293
60	0xbb1798ad	-0.0023131773
61	0x3d96ad76	0.07357304
62	0xbd3b6363	-0.04574908
63	0xbd01dc3d	-0.031704176
64	0xbd3b6d0c	-0.045758292
65	0xbd9168b9	-0.071000524
66	0xbd0f62f6	-0.035006486
67	0x3daa0d48	0.083033144
68	0xbd222e73	-0.03959508
69	0x3d5bd3be	0.05366873
70	0x3d958e7d	0.07302568
71	0xbd6e4837	-0.05817434
72	0x3b454227	0.0030099244
73	0x3bceccb1	0.006311022
74	0x3b91dddc	0.0044514965
75	0x3a712194	0.0009198424
76	0x3b37388e	0.0027957293
77	0x3a93570f	0.0011241155
78	0x3ace0057	0.0015716654
79	0xbaf28348	-0.001850226
80	0x3b1fb977	0.002437202
81	0xbd6276fc	-0.055289254
82	0x3cbf8b07	0.023381723
83	0x3b3af2cd	0.0028526068
84	0x3cf5449c	0.029939942
85	0x3c5b93c0	0.013401926
86	0x3d64d88a	0.05587057
87	0xbbfb9c65	-0.007678556
88	0x3d7071cd	0.05870228
89	0x3d3ce2ff	0.046114918
90	0xbd41e944	-0.0473416
91	0x3cbe055a	0.023195911
92	0xbbac8470	-0.005264811
93	0x3decdf09	0.11565978
94	0xbbc99af7	-0.0061525065
95	0x3d2dd338	0.042437762
96	0x3c295d40	0.010337174
97	0x3cd6fe43	0.026244288
98	0x3d418f62	0.04725588
99	0xba822e0a	-0.0009931934
100	0xbaa509b5	-0.0012591394
101	0x3bb9f9fa	0.0056755515
102	0xba11dd9d	-0.0005564334
103	0x3af50c08	0.0018695602
104	0xba5510cc	-0.0008127808
105	0x3a7a7858	0.0009554676
106	0xba2faea5	-0.0006701744
107	0x3c0a15fe	0.008428095
108	0x3d88a427	0.066719346
109	0x3d26b65d	0.04070126
110	0x3d7360c8	0.05941847
111	0x3cfed8cb	0.031109234
112	0x3a582e6b	0.0008246663
113	0x3afb9156	0.0019193094
114	0xbd951502	-0.072793975
115	0x3e03fde9	0.12889828
116	0x3db1b962	0.08677937
117	0x3d55a165	0.05215587
118	0xbcf4840f	-0.029848127
119	0xbca70506	-0.020388138
120	0x3e0051d0	0.12531209
121	0x3cb51914	0.022106685
122	0x3cce1344	0.025155671
123	0x3d679b33	0.056544494
124	0x3ad5f83b	0.0016324589
125	0x3d7d71af	0.061875995
126	0xbb339a68	-0.0027405266
127	0x3bad0f02	0.00528133
128	0x3afdaec2	0.001935445
129	0xba85490f	-0.0010168868
130	0x3a258278	0.0006313692
131	0xba9299ee	-0.0011184791
132	0xbb839b20	-0.004016295
133	0xbaae2362	-0.0013285691
134	0x3b8d9abe	0.004321425
135	0xbda4dd2d	-0.080499984
136	0xbbf4aaaa	-0.007466634
137	0xbd5aec54	-0.053448036
138	0x3d9deaaa	0.07710774
139	0x3d0b85bd	0.03406309
140	0x3d7dc9f4	0.061960176
141	0xba81b2eb	-0.0009895241
142	0xbd44ae1d	-0.04801761
143	0x3d2bb69b	0.041922193
144	0xbdefa51e	-0.117014155
145	0xbb3ba90b	-0.0028634693
146	0xbd5b31a4	-0.053514138
147	0xbd523791	-0.051322524
148	0x3d210e8e	0.03932052
149	0xbdb09614	-0.08622375
150	0x3cf2d0bb	0.029640546
151	0xbba89f84	-0.005145969
152	0xbd18e518	-0.037327856
153	0x382c7201	4.111417e-05
154	0xbace7b7e	-0.0015753356
155	0x3bcb4746	0.006203565
156	0x3b57f41f	0.0032951904
157	0x3b8896d5	0.004168371
158	0x3a487cc6	0.0007647987
159	0x3adf3821	0.0017030278
160	0xba613f34	-0.0008592487
161	0xb93c4678	-0.00017955329
162	0x3cce1310	0.025155574
163	0xbc97c617	-0.018527074
164	0xbd548be5	-0.051891226
165	0xbd4ee029	-0.050506745
166	0xbda9f3ed	-0.08298478
167	0x3dc2f595	0.09519497
168	0x3d0cac84	0.03434421
169	0xbe07ed03	-0.13274007
170	0xbd74a2c2	-0.05972553
171	0xbd875208	-0.06607443
172	0xbcf506c4	-0.029910453
173	0xbd928409	-0.0715409
174	0xbd74b878	-0.059746236
175	0xbe114dfa	-0.14189902
176	0xbcd9b167	-0.02657385
177	0x3d91d398	0.071204364
178	0xbdf373cf	-0.11887323
179	0xbd54fcf8	-0.051999062
180	0xbc832a10	-0.016011268
181	0xbb9dfd21	-0.004821435
182	0xbc0ac98b	-0.008470903
183	0xbaaace35	-0.0013031425
184	0x38854383	6.354509e-05
185	0xba313f8e	-0.00067614845
186	0xbb3d19fc	-0.00288546
187	0xbbaea8e2	-0.005330191
188	0xbbd315a9	-0.006441791
189	0x3d82dd6b	0.063898884
190	0xbc0e406b	-0.008682351
191	0x3dca4d4a	0.09878023
192	0x3df91f6b	0.121641956
193	0x3d02ac9f	0.031902906
194	0x3d784ab4	0.060618117
195	0x3d42885d	0.047493327
196	0x3d6011c0	0.054704428
197	0x3d942b7d	0.07234857
198	0x3d86c674	0.06580821
199	0x3b70bf72	0.0036735204
200	0x3db1da62	0.08684231
201	0x3c66fe48	0.014098711
202	0x3d25baf6	0.040461503
203	0xbc20c8fd	-0.009813544
204	0x3c9ca6b2	0.019122455
205	0x3de90552	0.11377968
206	0x3d526899	0.051369283
207	0xbb24ebe8	-0.0025165025
208	0xbccb46e2	-0.024814073
209	0xbc950a71	-0.018193455
210	0xbb607873	-0.003425148
211	0xba56cbbf	-0.00081938127
212	0xba388d6f	-0.0007040118
213	0xba98e2ef	-0.0011664311
214	0xba5302ee	-0.0008049448
215	0xbc7854c9	-0.015156933
216	0xbd86e632	-0.06586875
217	0x3d168ab3	0.036753368
218	0xbd1e333d	-0.038623083
219	0x3d23dace	0.04000359
220	0x3d8d51e3	0.06900384
221	0xbd2dd220	-0.04243672
222	0x3d16e90b	0.03684334
223	0x3d9c2f8f	0.076262586
224	0xbd39e55e	-0.045384757
225	0xbc888cd7	-0.01666872
226	0x3ce9c644	0.028536923
227	0xbc26ec76	-0.010188213
228	0xbd17054e	-0.036870293
229	0x3d50bcb4	0.05096121
230	0x3c119fc0	0.008888185
231	0x3d9edd2c	0.07757029
232	0x3e1474c3	0.14497666
233	0xbce94aa6	-0.028477978
234	0xbb0af49b	-0.0021202925
235	0xbbd0adb3	-0.006368363
236	0x3af5137d	0.0018697825
237	0x391ed312	0.00015146684
238	0x3b65d70a	0.00350708
239	0x3aa902f4	0.0012894557
240	0x3bf38211	0.0074312766
241	0x3a1e5b31	0.000604081
242	0x3b4f2e8a	0.0031613433
243	0xbcd6e055	-0.026230017
244	0xbd6a77b4	-0.057243064
245	0x3d91daf8	0.07121843
246	0xbd7466ad	-0.05966823
247	0xbdfd2e00	-0.123622894
248	0xbdde9460	-0.10868144
249	0xbd9c6751	-0.076368935
250	0xbe0ee0fd	-0.13953014
251	0xbd215bb9	-0.039394114
252	0x3b1a9077	0.0023584643
253	0xbd1043d2	-0.03522093
254	0x3c4e463b	0.012589986
255	0xbd3b0dea	-0.045667566
