NeuralMidiFXPlugin/NeuralMidiFXPlugin/PretrainedModelsSerialization/serializedONNX/model_4.onnx (onnx, 40567 bytes, 3 tensors)

Linear.bias f4 [128]
0	0xbe433dfc	-0.19066614
1	0x00000000	0.0
2	0xbdc80c6a	-0.09767993
3	0xbd520d4c	-0.051282212
4	0xba85855c	-0.0010186839
5	0x3e810c0b	0.252045
6	0xbc91d66d	-0.017802441
7	0x3d792ee4	0.060835734
8	0x00000000	0.0
9	0x3e85028e	0.25978512
10	0x3de08454	0.109627396
11	0xbbc96b36	-0.0061468137
12	0x00000000	0.0
13	0xbebf71d4	-0.3739153
14	0xbe16fc71	-0.14744736
15	0xbca6dcdd	-0.020368988
16	0xbb956ae5	-0.004559862
17	0x00000000	0.0
18	0x00000000	0.0
19	0xbdfb5e30	-0.12273824
20	0xbd9041c9	-0.070437975
21	0x00000000	0.0
22	0xbabfcee7	-0.0014633805
23	0x3af1967f	0.0018431692
24	0xbcedc263	-0.029023355
25	0x3f25d0c9	0.64771706
26	0xbdfa9836	-0.12236063
27	0x3e8aedf9	0.27134684
28	0xba86c7c4	-0.0010282923
29	0xbcc903f9	-0.024538027
30	0xbb137434	-0.0022499682
31	0xbe28e378	-0.16493022
32	0xbac9504a	-0.0015359011
33	0x3aa29610	0.0012404341
34	0x00000000	0.0
35	0x3e969bd1	0.29415753
36	0x3d12da10	0.03585249
37	0xbd73010d	-0.059327174
38	0x3e08275f	0.13296269
39	0xbb6c432b	-0.0036050777
40	0x3cabb217	0.020958943
41	0x00000000	0.0
42	0x00000000	0.0
43	0x00000000	0.0
44	0x00000000	0.0
45	0x00000000	0.0
46	0x3a39f6a9	0.0007093945
47	0x00000000	0.0
48	0x00000000	0.0
49	0xbd1aafd4	-0.03776534
50	0x3c0a4e17	0.00844147
51	0xbd0a62f0	-0.03378576
52	0xbcab87c5	-0.020938763
53	0xb9a5233e	-0.0003149751
54	0xba2d598e	-0.0006612771
55	0x00000000	0.0
56	0xbe3709c0	-0.17874813
57	0x00000000	0.0
58	0xbdbb0dca	-0.091334894
59	0xbdfc2e68	-0.12313539
60	0xbea217f5	-0.31658903
61	0x3e2bc715	0.16775163
62	0x3d0f0a0a	0.034921683
63	0xbcbe2316	-0.02321009
64	0x00000000	0.0
65	0xbba9b5ea	-0.0051791565
66	0xbe89102c	-0.2677015
67	0xbc6e58df	-0.014547556
68	0x3eb2f793	0.3495451
69	0x00000000	0.0
70	0xbe81a9b8	-0.25324798
71	0xbd0e9285	-0.0348077
72	0x3f60f89d	0.87879354
73	0x00000000	0.0
74	0x00000000	0.0
75	0x3c1c4a6f	0.009539231
76	0x00000000	0.0
77	0x3e29fb5c	0.16599792
78	0xbdd126ce	-0.102124795
79	0x00000000	0.0
80	0x3f2c0a0a	0.6720282
81	0xbd65338a	-0.055957355
82	0x3eecc9b0	0.46247625
83	0xbdc94c71	-0.09829033
84	0x3ea3e792	0.32012612
85	0x00000000	0.0
86	0xbf19b6c5	-0.6004451
87	0x00000000	0.0
88	0x3e8ff50a	0.28116637
89	0x3eae57a5	0.34051242
90	0xbde8ff0b	-0.113767706
91	0xbc4ecb1c	-0.012621667
92	0x00000000	0.0
93	0xbc9e8aed	-0.019353354
94	0x00000000	0.0
95	0xbd12a1ff	-0.035799023
96	0xbf16bff4	-0.5888665
97	0xbda2ae8e	-0.0794345
98	0x00000000	0.0
99	0x3d9a979b	0.07548448
100	0x00000000	0.0
101	0xbc0e8bf4	-0.00870036
102	0x3e1dc405	0.15406807
103	0x3e772f22	0.24139073
104	0x3ed7c65e	0.4214353
105	0xbbfd089d	-0.007721974
106	0x00000000	0.0
107	0x00000000	0.0
108	0xbe89cd33	-0.26914367
109	0xbd338152	-0.0438245
110	0xbd436830	-0.047706783
111	0xbca10f3b	-0.019660583
112	0x00000000	0.0
113	0x00000000	0.0
114	0x00000000	0.0
115	0x00000000	0.0
116	0xbe7265e8	-0.23671687
117	0x3e859d8d	0.26096764
118	0x3f212b19	0.62956387
119	0x00000000	0.0
120	0xbed3b4ef	-0.4134898
121	0x3e1d9d1c	0.15391964
122	0xbf0555d0	-0.52084064
123	0xb85d9dc3	-5.2837433e-05
124	0xbca5b588	-0.020228162
125	0x3e55ce86	0.20879564
126	0x3f1d64d1	0.6148196
127	0xbd2e1eec	-0.04250996

onnx::MatMul_14 f4 [27, 128]
0	0x3d6a8d0d	0.057263423
1	0x3dbdf2a5	0.092747964
2	0x3dca6805	0.098831214
3	0xbda193b3	-0.078894995
4	0xbd772ee7	-0.060347464
5	0x3d0423b3	0.032260608
6	0xbd5117a3	-0.051047932
7	0x3cf6603a	0.030075181
8	0x3d80c9fa	0.06288524
9	0xbd1f5d83	-0.03890754
10	0xbda957cd	-0.082687
11	0x3d51f740	0.051261187
12	0xbd91e528	-0.07123786
13	0xbdad1cf3	-0.08452787
14	0xbcf34c9a	-0.029699612
15	0x3d88845d	0.06665871
16	0x3cf65640	0.030070424
17	0x3d48ac6a	0.048992552
18	0x3d351417	0.044208612
19	0x3c7e4b0d	0.015520823
20	0xbd0ab4c7	-0.03386381
21	0x3d346593	0.04404218
22	0x3c1e245a	0.009652222
23	0xbd4175d3	-0.047231507
24	0xbc9ede40	-0.019393086
25	0xbd7ba247	-0.061434057
26	0x3d4b6d60	0.049664855
27	0x3dac5893	0.08415332
28	0x3d46e107	0.048554447
29	0x3db37520	0.08762574
30	0xbdc85510	-0.097818494
31	0xbdc65547	-0.09684234
32	0xbced4ba0	-0.028966725
33	0xbd68912d	-0.056779075
34	0xbd98185d	-0.07426522
35	0xbd19f707	-0.0375891
36	0x3d9c2d40	0.07625818
37	0x3d2753d0	0.040851414
38	0x3d91e357	0.0712344
39	0x3d69a8f0	0.057045877
40	0x3d6eb493	0.058277678
41	0xba8a7800	-0.0010564327
42	0x3d9ac3d0	0.075568795
43	0xbba1929a	-0.0049308063
44	0x3d8eab2b	0.069662414
45	0xbcb4e627	-0.022082401
46	0x3d8cb595	0.068705715
47	0xbcba746d	-0.022760594
48	0xbc2c5f67	-0.010520793
49	0x3d94954b	0.07255038
50	0x3d83c71b	0.06434461
51	0x3d26e710	0.040747702
52	0x3db593e3	0.08866098
53	0x3d3df2ad	0.04637401
54	0xbc5d38c0	-0.0135023
55	0x3d8b10e7	0.06790333
56	0xbdc34662	-0.09534909
57	0x3dc682ad	0.09692893
58	0x3dc515d8	0.09623307
59	0x3d9ddff0	0.07708728
60	0x39153333	0.0001422882
61	0xbd6487aa	-0.05579344
62	0x3d851d90	0.06499779
63	0xbd278550	-0.04089862
64	0x3db45762	0.088057294
65	0xba06319a	-0.00051190855
66	0x3c26a34d	0.01017077
67	0x3d80743a	0.062721685
68	0xbd809f20	-0.06280351
69	0xbdbc5b0d	-0.09197054
70	0x3d3c8ff0	0.046035707
71	0x3d8e18af	0.06938302
72	0x3d045c2a	0.032314457
73	0xbd6f6e00	-0.058454514
74	0x3cf20bf3	0.029546713
75	0xbd303b33	-0.043025207
76	0xbcab4bc7	-0.020910157
77	0xbc6c411a	-0.014419818
78	0xbd5cb90a	-0.053887405
79	0xbdc26b97	-0.094931774
80	0x3d886c40	0.06661272
81	0xbbc75d80	-0.006084144
82	0xbc23d8e7	-0.010000444
83	0xbd98e317	-0.07465189
84	0xbd6a643a	-0.05722449
85	0x3bdbcce7	0.006707776
86	0x3dabaf57	0.08383053
87	0xbd20f730	-0.039298236
88	0xbd932a63	-0.07185819
89	0xbd2cc160	-0.042176604
90	0x3da5bf98	0.08093184
91	0xbc9b886d	-0.018985951
92	0xbc31ef80	-0.010860324
93	0xbd0b2637	-0.03397199
94	0xbd44f01a	-0.04808054
95	0xbd8fccd3	-0.07021489
96	0xbdbf95a8	-0.093547165
97	0xbdc554f5	-0.09635345
98	0xbdc9ab33	-0.09847107
99	0xbc43ff0d	-0.011962664
100	0x3dcbaeb8	0.09945434
101	0xbdac09b3	-0.084002875
102	0xbdb11483	-0.086464904
103	0xbbcfc59a	-0.0063406946
104	0x3d7b7e33	0.06139965
105	0xbb988db3	-0.0046555637
106	0x3dc58bd5	0.096458115
107	0x3db37650	0.08762801
108	0xbd2b9227	-0.04188743
109	0xbc84112d	-0.016121471
110	0x3d3c089a	0.04590664
111	0x3dccb6c5	0.09995798
112	0xbd348460	-0.044071555
113	0xbdc3f8e3	-0.09568956
114	0x3dc16d6d	0.094446994
115	0xbd83036f	-0.06397139
116	0x3be8cf33	0.007104778
117	0x3d2f4417	0.042789545
118	0xbd0b0133	-0.03393669
119	0x3d46a673	0.048498582
120	0x3d4bc9e0	0.04975307
121	0xbcf035e0	-0.029322565
122	0xbd431427	-0.04762664
123	0xbd6b9277	-0.057512727
124	0x3d4ad65d	0.04952084
125	0x3d2fd3b0	0.04292649
126	0x3cc721cd	0.02430811
127	0x3d214100	0.03936863
128	0xbc8416f3	-0.016124224
129	0xbc1ea727	-0.009683407
130	0x3dc0b838	0.09410137
131	0x3c2b0d40	0.010440171
132	0xbbbee34d	-0.005825436
133	0x3dae9e22	0.08526255
134	0x3dc24d32	0.0948738
135	0x3cc6a527	0.024248673
136	0x3dacef58	0.08444089
137	0x3cbddc1a	0.023176242
138	0xbd8bd28d	-0.06827269
139	0x3da9d328	0.08292228
140	0xbc87a42d	-0.016557777
141	0xbdc42972	-0.095782176
142	0x3d5863c3	0.052829515
143	0xbd9d11c7	-0.076694064
144	0x3dc147f2	0.094375506
145	0x3d3aadb7	0.045575824
146	0xbd9a2257	-0.07526081
147	0x3db04342	0.086065784
148	0xbd6cfbe0	-0.057857394
149	0xbd8f871d	-0.07008193
150	0x3d33d670	0.043905675
151	0x3d81a70b	0.06330689
152	0x3c5be533	0.013421345
153	0xbd087ef7	-0.033324208
154	0x3d57d103	0.052689563
155	0x3d78eced	0.060772825
156	0xbd821de2	-0.06353356
157	0xbd02c08d	-0.031921912
158	0xbdb82a2b	-0.08992418
159	0x3c53a140	0.012916863
160	0xbd4e2b67	-0.05033436
161	0xbd8659fb	-0.06560131
162	0xbd822f2a	-0.06356652
163	0xbd7cffba	-0.061767317
164	0xbc57b300	-0.0131652355
165	0xbd48e2c3	-0.04904438
166	0x3db6215b	0.08893081
167	0xbdb4ee55	-0.08834521
168	0x3d23e32a	0.040011562
169	0x3caf461a	0.021395732
170	0x3da123aa	0.078681305
171	0x3bf5fb67	0.007506776
172	0x3dbbf190	0.09176934
173	0xbc262833	-0.01014142
174	0xbc349f73	-0.011024344
175	0x3d811b45	0.063040294
176	0x3d10f41d	0.035389055
177	0x3c81e4b3	0.015856123
178	0xbd59d70a	-0.053183593
179	0xbdba8d13	-0.09108939
180	0xbdb63e12	-0.08898558
181	0x3d7c02b3	0.06152601
182	0xbd356267	-0.044283297
183	0xbd342a8d	-0.043985892
184	0xbd3f93aa	-0.046771683
185	0x3db46265	0.0880783
186	0x3cbc0fed	0.022956813
187	0x3bd6a19a	0.006550026
188	0xbc6a4a9a	-0.014300013
189	0xbcde05c0	-0.027102351
190	0xbbf2b567	-0.0074068788
191	0x3d718ec3	0.05897404
192	0xbd5da433	-0.05411167
193	0xbdaa5f5d	-0.0831897
194	0xbb7fe700	-0.00390476
195	0x3db5b970	0.0887326
196	0xbd88ed3a	-0.066858724
197	0x3d8426bd	0.06452701
198	0x3d83d32d	0.06436763
199	0xbd9b12b7	-0.07571929
200	0x3d04f06d	0.03245585
201	0xbbebbb9a	-0.0071939947
202	0xbc5bfe80	-0.013427377
203	0x3d2a6dc7	0.041608598
204	0xbd5d7fd3	-0.05407698
205	0x3d91cfaa	0.07119687
206	0x3c1a4200	0.00941515
207	0x3b41889a	0.0029530884
208	0xbd99d338	-0.0751099
209	0x3dcc0958	0.0996272
210	0xbd243e1d	-0.0400983
211	0x3d317ff0	0.0433349
212	0xbd291a6a	-0.041284956
213	0xbd36144d	-0.044452954
214	0xbc648a0d	-0.0139489295
215	0x3daf7a3a	0.08568235
216	0x3d4e8867	0.050423052
217	0xbd15c067	-0.036560442
218	0x3dc3650a	0.09540756
219	0x3cb04ab3	0.021519994
220	0xbdb3359f	-0.08750462
221	0x3d2ee8da	0.042702533
222	0xbd3e2333	-0.046420287
223	0x3d0a02b0	0.03369397
224	0x3c0718f3	0.008245694
225	0xbd018117	-0.03161725
226	0xbdaebd3d	-0.08532188
227	0xbd9d7df7	-0.076900415
228	0x3cae1e93	0.021254813
229	0x3c76fef3	0.015075433
230	0x3d66bc57	0.05633196
231	0x3dbcc9ef	0.09218203
232	0xbdbd2c3b	-0.09236952
233	0x3c313f40	0.010818303
234	0xbdc55f30	-0.09637296
235	0xbdb13908	-0.08653456
236	0x3dc60890	0.09669602
237	0xbd72c7fd	-0.059272755
238	0xbd75ecb3	-0.060040187
239	0x3dab9c13	0.08379378
240	0xbd502380	-0.050815105
241	0xbd26b78d	-0.04070239
242	0x3db52ecb	0.08846816
243	0x3d0611fa	0.032731988
244	0x3c77584d	0.015096736
245	0xbd1a3a23	-0.0376531
246	0x3b27c69a	0.0025600553
247	0x3cdd9d53	0.027052557
248	0xbdbd8db3	-0.092555426
249	0xbc4befcd	-0.01244731
250	0xbcbd5927	-0.0231138
251	0x3d819db7	0.0632891
252	0xbdc37c37	-0.095451765
253	0x3dc0f3a8	0.09421474
254	0x3cb19100	0.021675587
255	0x3d1414aa	0.03615252

onnx::Add_15 f4 [1, 32, 128]
0	0x00000000	0.0
1	0x3f800000	1.0
2	0x00000000	0.0
3	0x3f800000	1.0
4	0x00000000	0.0
5	0x3f800000	1.0
6	0x00000000	0.0
7	0x3f800000	1.0
8	0x00000000	0.0
9	0x3f800000	1.0
10	0x00000000	0.0
11	0x3f800000	1.0
12	0x00000000	0.0
13	0x3f800000	1.0
14	0x00000000	0.0
15	0x3f800000	1.0
16	0x00000000	0.0
17	0x3f800000	1.0
18	0x00000000	0.0
19	0x3f800000	1.0
20	0x00000000	0.0
21	0x3f800000	1.0
22	0x00000000	0.0
23	0x3f800000	1.0
24	0x00000000	0.0
25	0x3f800000	1.0
26	0x00000000	0.0
27	0x3f800000	1.0
28	0x00000000	0.0
29	0x3f800000	1.0
30	0x00000000	0.0
31	0x3f800000	1.0
32	0x00000000	0.0
33	0x3f800000	1.0
34	0x00000000	0.0
35	0x3f800000	1.0
36	0x00000000	0.0
37	0x3f800000	1.0
38	0x00000000	0.0
39	0x3f800000	1.0
40	0x00000000	0.0
41	0x3f800000	1.0
42	0x00000000	0.0
43	0x3f800000	1.0
44	0x00000000	0.0
45	0x3f800000	1.0
46	0x00000000	0.0
47	0x3f800000	1.0
48	0x00000000	0.0
49	0x3f800000	1.0
50	0x00000000	0.0
51	0x3f800000	1.0
52	0x00000000	0.0
53	0x3f800000	1.0
54	0x00000000	0.0
55	0x3f800000	1.0
56	0x00000000	0.0
57	0x3f800000	1.0
58	0x00000000	0.0
59	0x3f800000	1.0
60	0x00000000	0.0
61	0x3f800000	1.0
62	0x00000000	0.0
63	0x3f800000	1.0
64	0x00000000	0.0
65	0x3f800000	1.0
66	0x00000000	0.0
67	0x3f800000	1.0
68	0x00000000	0.0
69	0x3f800000	1.0
70	0x00000000	0.0
71	0x3f800000	1.0
72	0x00000000	0.0
73	0x3f800000	1.0
74	0x00000000	0.0
75	0x3f800000	1.0
76	0x00000000	0.0
77	0x3f800000	1.0
78	0x00000000	0.0
79	0x3f800000	1.0
80	0x00000000	0.0
81	0x3f800000	1.0
82	0x00000000	0.0
83	0x3f800000	1.0
84	0x00000000	0.0
85	0x3f800000	1.0
86	0x00000000	0.0
87	0x3f800000	1.0
88	0x00000000	0.0
89	0x3f800000	1.0
90	0x00000000	0.0
91	0x3f800000	1.0
92	0x00000000	0.0
93	0x3f800000	1.0
94	0x00000000	0.0
95	0x3f800000	1.0
96	0x00000000	0.0
97	0x3f800000	1.0
98	0x00000000	0.0
99	0x3f800000	1.0
100	0x00000000	0.0
101	0x3f800000	1.0
102	0x00000000	0.0
103	0x3f800000	1.0
104	0x00000000	0.0
105	0x3f800000	1.0
106	0x00000000	0.0
107	0x3f800000	1.0
108	0x00000000	0.0
109	0x3f800000	1.0
110	0x00000000	0.0
111	0x3f800000	1.0
112	0x00000000	0.0
113	0x3f800000	1.0
114	0x00000000	0.0
115	0x3f800000	1.0
116	0x00000000	0.0
117	0x3f800000	1.0
118	0x00000000	0.0
119	0x3f800000	1.0
120	0x00000000	0.0
121	0x3f800000	1.0
122	0x00000000	0.0
123	0x3f800000	1.0
124	0x00000000	0.0
125	0x3f800000	1.0
126	0x00000000	0.0
127	0x3f800000	1.0
128	0x3f576aa4	0.84147096
129	0x3f0a5141	0.54030234
130	0x3f43001b	0.76172036
131	0x3f25dd29	0.6479059
132	0x3f2e7ace	0.68156135
133	0x3f3b54b0	0.731761
134	0x3f1acd3a	0.604694
135	0x3f4be4aa	0.7964579
136	0x3f087dba	0.53316844
137	0x3f58940d	0.8460091
138	0x3eef96e3	0.46794805
139	0x3f623dd5	0.883756
140	0x3ed190f0	0.4093089
141	0x3f6992c7	0.9123959
142	0x3eb6d761	0.35711196
143	0x3f6f1ea9	0.9340616
144	0x3e9f393e	0.3109836
145	0x3f734e6b	0.9504153
146	0x3e8a7617	0.2704322
147	0x3f767611	0.96273905
148	0x3e708f25	0.23492105
149	0x3f78d5f1	0.9720145
150	0x3e50ce61	0.20391227
151	0x3f7a9f09	0.9789892
152	0x3e35233a	0.17689219
153	0x3f7bf683	0.9842302
154	0x3e1d10e3	0.15338473
155	0x3f7cf87c	0.9881666
156	0x3e0825f3	0.13295726
157	0x3f7dba28	0.99112177
158	0x3debf95c	0.11522171
159	0x3f7e4b84	0.9933398
160	0x3dcc7576	0.099833414
161	0x3f7eb898	0.9950042
162	0x3db120bf	0.08648824
163	0x3f7f0a6e	0.9962529
164	0x3d996f36	0.07491915
165	0x3f7f47d1	0.9971896
166	0x3d84e660	0.06489253
167	0x3f7f75de	0.99789226
168	0x3d6636ae	0.05620449
169	0x3f7f9868	0.9984193
170	0x3d476212	0.04867751
171	0x3f7fb24f	0.9988145
172	0x3d2cacfb	0.042157155
173	0x3f7fc5bd	0.999111
174	0x3d158ac5	0.036509294
175	0x3f7fd44f	0.9993333
176	0x3d01815b	0.031617504
177	0x3f7fdf3c	0.99950004
178	0x3ce04da4	0.027380772
179	0x3f7fe76e	0.9996251
180	0x3cc23ea5	0.023711512
181	0x3f7fed93	0.99971884
182	0x3ca83682	0.020533804
183	0x3f7ff22f	0.9997892
184	0x3c91ab42	0.017781857
185	0x3f7ff5a3	0.99984187
186	0x3c7c4aa3	0.015398654
187	0x3f7ff83b	0.99988145
188	0x3c5a7a49	0.013334819
189	0x3f7ffa2c	0.99991107
190	0x3c3d31fa	0.01154756
191	0x3f7ffba1	0.9999333
192	0x3c23d657	0.009999833
193	0x3f7ffcb9	0.99995
194	0x3c0de0ba	0.008659536
195	0x3f7ffd8b	0.9999625
196	0x3bf5b916	0.0074988706
197	0x3f7ffe28	0.99997187
198	0x3bd4c9b3	0.006493771
199	0x3f7ffe9e	0.9999789
200	0x3bb8445a	0.0056233825
201	0x3f7ffef7	0.9999842
202	0x3b9f91a3	0.004869656
203	0x3f7fff39	0.99998814
204	0x3b8a2e5a	0.0042169513
205	0x3f7fff6b	0.9999911
206	0x3b6f51ea	0.003651733
207	0x3f7fff90	0.9999933
208	0x3b4f3e1c	0.0031622713
209	0x3f7fffac	0.999995
210	0x3b3376fe	0.0027384157
211	0x3f7fffc1	0.99999624
212	0x3b1b6903	0.0023713715
213	0x3f7fffd1	0.9999972
214	0x3b069467	0.0020535232
215	0x3f7fffdd	0.9999979
216	0x3ae91520	0.0017782785
217	0x3f7fffe6	0.99999845
218	0x3ac9d754	0.0015399256
219	0x3f7fffec	0.9999988
220	0x3aaec98b	0.0013335211
221	0x3f7ffff1	0.9999991
222	0x3a975c09	0.0011547814
223	0x3f7ffff5	0.99999934
224	0x3a83126d	0.0009999998
225	0x3f7ffff8	0.9999995
226	0x3a6301e1	0.0008659643
227	0x3f7ffffa	0.99999964
228	0x3a449489	0.000749894
229	0x3f7ffffb	0.9999997
230	0x3a2a3b43	0.0006493816
231	0x3f7ffffd	0.9999998
232	0x3a136a13	0.0005623411
233	0x3f7ffffd	0.9999998
234	0x39ff4fab	0.00048696747
235	0x3f7ffffe	0.9999999
236	0x39dd1721	0.00042169637
237	0x3f7fffff	0.99999994
238	0x39bf74d6	0.00036517408
239	0x3f7fffff	0.99999994
240	0x39a5cb61	0.00031622782
241	0x3f7fffff	0.99999994
242	0x398f9275	0.00027384204
243	0x3f7fffff	0.99999994
244	0x3978a80d	0.00023713727
245	0x3f800000	1.0
246	0x395753e2	0.00020535247
247	0x3f800000	1.0
248	0x393a7753	0.00017782794
249	0x3f800000	1.0
250	0x39217919	0.00015399269
251	0x3f800000	1.0
252	0x390bd46d	0.00013335208
253	0x3f800000	1.0
254	0x38f22cdd	0.00011547816
255	0x3f800000	1.0
