NeuralMidiFXPlugin/NeuralMidiFXPlugin/PretrainedModelsSerialization/serializedONNX/model_1_input_layer.onnx (onnx, 40587 bytes, 3 tensors)

Linear.bias f4 [128]
000000 e7 1a 93 3d 00 00 00 00 dd 65 74 3e 00 00 00 00
       0.071828656 0.0 0.23866983 0.0
000010 69 80 11 be 5d cf 99 bd 51 3c 88 bc 00 00 00 00
       -0.14209141 -0.075102545 -0.016630324 0.0
000020 00 00 00 00 39 69 48 3d c0 64 c9 3d 13 f3 a2 ba
       0.0 0.048928473 0.0983367 -0.0012432061
000030 4b 07 25 bc 65 36 9c bb 94 39 89 3d 23 e8 3a bd
       -0.01007254 -0.0047672265 0.06700435 -0.04563154
000040 de 51 29 bc 0a 8b ce 3c 00 00 00 00 95 a7 13 bd
       -0.01033446 0.025212783 0.0 -0.03604849
000050 e3 91 fe b9 f4 37 7e bd 81 4f 13 3f f9 4e e6 3a
       -0.0004855535 -0.06206508 0.5754319 0.0017571143
000060 00 00 00 00 00 00 00 00 5c c2 83 ba 8d f3 53 3e
       0.0 0.0 -0.001005243 0.20698376
000070 00 00 00 00 43 ad 97 3d 8a 28 e0 bc 00 00 00 00
       0.0 0.07406094 -0.02736308 0.0
000080 94 af 7a 3a 17 cc 00 b9 d6 ec 28 39 45 0a 3a 3e
       0.00095629063 -0.0001228306 0.00016109957 0.1816798
000090 1c 01 26 3e 00 00 00 00 54 16 fc 38 ca d2 dc bc
       0.1621136 0.0 0.00012020455 -0.02695598
0000a0 aa b6 0b bd 27 29 0d bd b3 65 2c bd 00 00 00 00
       -0.03410975 -0.034463074 -0.042089175 0.0
0000b0 d9 c2 ae 3e 00 00 00 00 f4 23 c0 bc e5 00 c2 b8
       0.34133032 0.0 -0.023454644 -9.2508075e-05
0000c0 06 ce 0e bd 03 04 d6 3d 00 00 00 00 d2 6b dc ba
       -0.034864448 0.10449984 0.0 -0.0016816801
0000d0 00 00 00 00 b3 93 b1 bc 18 cd db bd 6e 00 18 bb
       0.0 -0.021676874 -0.10732478 -0.0023193615
0000e0 3a ef 51 3e 75 27 9f bc 5e 61 91 3e 00 00 00 00
       0.20501414 -0.019427994 0.28394598 0.0
0000f0 c2 0e 30 be 37 b1 2d 3e 7e 05 01 3f 98 ec 80 3e
       -0.1719313 0.16962133 0.50399005 0.25180507
000100 2d 8e 39 3f 20 01 89 ba bc 20 45 b9 a9 5a b0 bc
       0.7248257 -0.0010452606 -0.00018799579 -0.021527605
000110 00 00 00 00 28 89 b6 3d 6f da 09 3e 97 1b 0e ba
       0.0 0.08912879 0.13462232 -0.00054209813
000120 40 d9 be be 80 48 b6 bc cb 47 1a bb d8 ab a1 bb
       -0.37275124 -0.022251368 -0.0023541327 -0.0049338154
000130 87 84 49 3e 4e 4f ec 3b 00 00 00 00 70 2b c4 bd
       0.19679461 0.0072116023 0.0 -0.095785975
000140 9d 6c 03 3f 00 00 00 00 d0 4e ca 3e 00 00 00 00
       0.51337606 0.0 0.39513254 0.0
000150 b3 07 e8 be 00 00 00 00 00 00 00 00 07 57 44 3d
       -0.45318374 0.0 0.0 0.04793456
000160 68 d5 df bd 3f fd 89 bb 5d a7 15 be 00 00 00 00
       -0.10929376 -0.0042110975 -0.14614625 0.0
000170 cc 1e 05 3f 00 00 00 00 00 00 00 00 12 06 d0 3b
       0.5200012 0.0 0.0 0.00634838
000180 00 00 00 00 db f6 0a bd 7a 38 f4 be ab 55 f5 bd
       0.0 -0.033926826 -0.47699338 -0.119792305
000190 13 53 e3 be 5f 9f 62 b8 dc d3 86 bd f9 05 9a b9
       -0.44399318 -5.4031025e-05 -0.06583378 -0.0002937762
0001a0 00 00 00 00 00 00 00 00 00 00 00 00 c0 67 2b bc
       0.0 0.0 0.0 -0.010461748
0001b0 51 1b be be 88 59 39 bd f4 d1 e1 bd e0 0a 63 bb
       -0.37130216 -0.0452514 -0.110263735 -0.0034643933
0001c0 57 e5 c5 3e 42 e7 e6 bc f5 5d e2 bc 2d ac af bc
       0.38651535 -0.028186444 -0.027632693 -0.021444404
0001d0 67 b3 b9 be 73 e8 93 bd d4 f7 5e be 89 c4 10 ba
       -0.36269686 -0.072220705 -0.21774226 -0.000552245
0001e0 06 b2 ca bd 56 0d ed 3c e3 de f1 bd 00 00 00 00
       -0.098972365 0.028937023 -0.118100904 0.0
0001f0 bc 46 7b bb a7 7c 7a bb 2e a2 f0 bc 00 00 00 00
       -0.0038341722 -0.0038221271 -0.029374208 0.0

onnx::MatMul_14 f4 [27, 128]
000000 43 53 49 3d 77 aa c2 3d 60 12 9c bd 2a 21 a2 3d
       0.04915167 0.0950517 -0.07620692 0.07916482
000010 c0 02 23 3c b0 1c 73 bd 53 6b 99 3c c0 a4 a6 3d
       0.009949386 -0.05935353 0.018727934 0.08136892
000020 a7 b4 80 3c 20 d2 65 bd 90 de 21 bd a0 d6 f3 bc
       0.015711142 -0.056108594 -0.039518893 -0.029765427
000030 50 8e ac 3d 5f 46 c4 bd 07 4d 91 3d e7 e3 35 3d
       0.084255815 -0.09583735 0.0709477 0.044406798
000040 67 98 4f 3d dd 68 83 bd 33 bd aa 3b da 74 e0 3c
       0.05068245 -0.064164855 0.0052105426 0.02739947
000050 50 50 2d 3d ba 56 c9 bc 35 57 92 bd 00 46 5e bb
       0.04231292 -0.024577487 -0.0714554 -0.0033916235
000060 20 1b eb bc ef 6c 90 3d ba 56 76 bd 0d 72 92 3d
       -0.028699458 0.070520274 -0.060141303 0.0715066
000070 67 45 58 3c cd e5 49 3b 37 0b 46 3d 9a 4b c3 bb
       0.013200141 0.0030807138 0.04835054 -0.00595994
000080 67 86 22 3a 27 24 55 3c 55 c1 c5 3d 13 57 15 bd
       0.0006199837 0.013009108 0.09656016 -0.036459994
000090 db 5e a0 3d 87 c0 ab bc c0 1d 84 bd 9a f0 d4 3c
       0.07830592 -0.020965828 -0.06450987 0.025993634
0000a0 d8 94 b2 3d ad c3 78 3d 65 b6 95 bd 97 77 55 3d
       0.08719796 0.060733486 -0.073101796 0.052116003
0000b0 25 35 99 3d bd 41 17 3d 13 d8 0c bd b3 59 5b 3d
       0.0748084 0.036927927 -0.034385752 0.05355234
0000c0 6d 1d f9 bc ca bb 29 bd a7 55 fd bc c3 27 1f bd
       -0.03040954 -0.041438855 -0.030924631 -0.03885628
0000d0 4d d5 33 3c f3 14 21 3c c8 3b aa 3d 08 cd a6 bd
       0.010976148 0.009831655 0.083121836 -0.08144575
0000e0 e0 67 fb bc b3 11 ea bb 4d fe 9d 3c 03 68 ba bd
       -0.03068918 -0.007143223 0.0192863 -0.0910187
0000f0 8b a0 81 bd 75 0b c2 bd 33 c4 a8 bb aa 35 a6 3d
       -0.06329449 -0.094748415 -0.005150342 0.08115704
000100 2f 31 87 3d 53 b2 b9 bc 5b 21 89 3d 67 3f 82 bb
       0.06601178 -0.02266804 0.06695815 -0.0039748433
000110 33 21 b1 bb a0 db 54 3d 33 df c7 bb 4d 2b b0 bd
       -0.005405569 0.051967263 -0.0060996055 -0.08602009
000120 e3 7f c1 bd 78 6d bb bd 17 1f b0 bd db 46 c7 bd
       -0.094482206 -0.09151739 -0.0859968 -0.097303115
000130 5d f8 61 3d 02 da 93 3d e7 c3 3a 3c c0 80 7f bc
       0.0551685 0.07219316 0.011399246 -0.015594661
000140 e0 e3 9c 3c 67 09 81 bd 8f 22 bb bd 8d b6 87 bc
       0.019151628 -0.063006215 -0.09137451 -0.01656654
000150 f0 d8 ab 3d e7 3c 1f bd 33 da 1f 3c d0 e1 ac bd
       0.08390987 -0.03887644 0.009756613 -0.08441508
000160 b3 26 bb 3d 93 e8 83 3c df d3 b2 bd 70 ab 06 3d
       0.09138241 0.016102111 -0.087318175 0.03287834
000170 b3 78 cd 3c d3 80 3e 3d a0 66 b4 3c 22 41 c5 bd
       0.025081968 0.046509575 0.022021592 -0.09631564
000180 7d ee 84 bd ea 2b b9 bd 67 26 9d 3d 88 3b 86 bd
       -0.064908005 -0.09041579 0.0767334 -0.065543234
000190 a7 10 ce 3c 42 39 b8 3d 23 66 59 3d 40 cd 0f 3d
       0.025154425 0.08995296 0.05307592 0.03510785
0001a0 fa b1 9e bd b3 77 89 3d 20 64 be bc 2a a2 73 3d
       -0.0774879 0.06712284 -0.023241103 0.059480824
0001b0 82 58 a2 3d 3d b1 65 3d 83 5a 2f bd cd 1c fb 3b
       0.07927038 0.05607723 -0.042810928 0.0076633454
0001c0 4d 06 9c 3d df 89 85 bd 4f 8b a9 3d 1a 4c d7 bc
       0.07618389 -0.065204374 0.08278524 -0.026281405
0001d0 95 96 8d 3d 63 ad 6a bd b7 23 5b 3d e0 05 8e bc
       0.06913487 -0.05729426 0.053500857 -0.017336786
0001e0 7a 0c 5d bd 3a 99 ed 3c 60 43 a8 bd 57 e5 8a bd
       -0.053966977 0.029003728 -0.08215976 -0.06782024
0001f0 af 69 9c 3d e0 84 90 3d 4d 94 78 bc 8f 36 bb bd
       0.07637345 0.07056594 -0.015172076 -0.091412656
000200 42 e6 aa 3d 58 a5 a3 bd 5a 72 b5 3d 83 7b 74 3d
       0.083446994 -0.07990521 0.088597015 0.059688102
000210 dd b8 bc 3d 6d 70 33 bd 63 82 85 3d b2 76 bd bd
       0.092149474 -0.04380839 0.0651901 -0.09251155
000220 43 a3 45 3d ed fa 43 3d f0 5c 73 bd 67 a8 22 bc
       0.0482514 0.047846723 -0.059414804 -0.009927846
000230 50 c1 03 3d 5f dc c4 bd 67 96 80 bb 9a 4e 7b 3c
       0.03216678 -0.09612345 -0.0039241794 0.015338564
000240 5a e3 6b 3d 7b 96 c2 bd e7 1a cb 3b cd 16 9e 3d
       0.057589866 -0.09501358 0.0061982754 0.07719193
000250 f3 e1 7b bc 9a 6d 29 3d 4d a3 5e 3d 27 9a 87 bc
       -0.015373695 0.04136429 0.054354955 -0.016552998
000260 2a 86 a1 3d c2 c2 85 bd 37 07 5f 3d 88 88 a6 3d
       0.07886918 -0.06531288 0.05445024 0.0813151
000270 00 8f fb bc 17 0a 34 3d cf d6 ba bd 47 e6 8b bd
       -0.030707836 0.043954935 -0.09123003 -0.06831031
000280 e7 27 c3 3d e7 19 6c bd 1a 61 cc bc ef 71 bd 3d
       0.09529095 -0.05764189 -0.024948645 0.09250247
000290 cd 5b b7 3d 5d f9 01 bd 15 31 86 3d d3 93 7f 3d
       0.089530565 -0.031731952 0.065523304 0.062396836
0002a0 e8 9b c5 bd b0 30 0f bd 80 84 88 bc 9a ab 05 bb
       -0.096488774 -0.03495854 -0.016664743 -0.0020396472
0002b0 1f 61 c9 3d 10 e0 98 3d c3 16 38 bd 62 33 89 bd
       0.098329775 0.074646115 -0.044943582 -0.066992536
0002c0 40 3b 7d 3d ed 35 0d 3d 0a 75 94 3d 60 2d f5 3c
       0.061824083 0.034475256 0.07248886 0.029928863
0002d0 0a 44 9e 3d 33 1f 0a ba 90 a7 c9 bd 20 7f e4 bc
       0.07727821 -0.0005268931 -0.09846413 -0.02789265
0002e0 9a 15 7c 3c 93 d2 b5 bc 53 ff 35 bd 8d 67 91 3d
       0.01538601 -0.022195136 -0.04443295 0.07099829
0002f0 87 55 26 bd 23 fd 6b bd 3a 73 c3 bc 9d 2d 9c 3d
       -0.04060891 -0.057614457 -0.023858655 0.076258875
000300 1a 54 36 bc 73 65 70 bc 40 f1 52 bd eb 0d 9e bd
       -0.01112845 -0.014672625 -0.051499605 -0.077174984
000310 0d 42 9f bc 9a de b2 bd e7 90 cc 3b 8d d3 f1 3c
       -0.019440675 -0.08733864 0.0062428596 0.02951982
000320 85 02 bc bd 05 01 ca 3d 12 b0 86 bd 4f 3a 89 3d
       -0.09180168 0.09863476 -0.065765515 0.067005746
000330 0a ee a9 3d 0d 09 74 bd a7 f8 18 3d c7 8e 52 3d
       0.082973555 -0.059578944 0.03734651 0.051405694
000340 4a a1 79 bd 60 4a 62 3d 9a 42 e1 3c 4d 5c 08 3c
       -0.060944833 0.05524671 0.027497578 0.0083227875
000350 27 39 99 3c 20 44 85 3c 65 a5 b8 bd a0 9d ae bd
       0.01870401 0.016267836 -0.090159215 -0.08526158
000360 60 db 22 bd 8d a2 ed 3c aa 44 b7 3d 2d b4 1a bd
       -0.039759994 0.029008174 0.089486435 -0.037769485
000370 92 28 ba 3d 27 a0 a9 3c 0d 5e 7b 3d 8d f0 63 bc
       0.090897694 0.02070625 0.06136899 -0.013912332
000380 4d 1f a4 3c 03 df 2d bd 0a e0 82 bd bb 88 94 bd
       0.020034457 -0.04244901 -0.06390388 -0.07252642
000390 3f 08 c8 3d d0 a7 95 bd 3a 36 96 3c 5d 64 b9 3d
       0.09767198 -0.07307398 0.018336404 0.09052346
0003a0 67 d3 42 bd 97 9c 15 3d bb d2 9b bd 2d 74 cb bc
       -0.04756489 0.03652629 -0.07608553 -0.02483567
0003b0 63 0b 4d bd a2 55 c1 3d fd 1b c3 3d f3 cd b5 3d
       -0.050059687 0.09440161 0.09526823 0.08877172
0003c0 23 7d b7 3d 60 30 68 3d 0b 26 86 bd f5 ef 80 3d
       0.08959415 0.05668676 -0.06550225 0.06295768
0003d0 f8 6a 9b bd 3d 6a 3c bd cd 80 5e bc 9a a4 bc bc
       -0.07588762 -0.045999754 -0.013580513 -0.023027707
0003e0 da 0d c6 3c f7 88 bb bd 80 11 6d 3c 82 cf 80 bd
       0.024176527 -0.09156983 0.014469504 -0.06289579
0003f0 c3 6e 54 bd 62 47 a9 3d 38 78 c0 3d a7 a3 f6 3c
       -0.051863443 0.08265568 0.0939793 0.030107332

onnx::Add_15 f4 [1, 32, 128]
000000 00 00 00 00 00 00 80 3f 00 00 00 00 00 00 80 3f
       0.0 1.0 0.0 1.0
000010 00 00 00 00 00 00 80 3f 00 00 00 00 00 00 80 3f
       0.0 1.0 0.0 1.0
000020 00 00 00 00 00 00 80 3f 00 00 00 00 00 00 80 3f
       0.0 1.0 0.0 1.0
000030 00 00 00 00 00 00 80 3f 00 00 00 00 00 00 80 3f
       0.0 1.0 0.0 1.0
000040 00 00 00 00 00 00 80 3f 00 00 00 00 00 00 80 3f
       0.0 1.0 0.0 1.0
000050 00 00 00 00 00 00 80 3f 00 00 00 00 00 00 80 3f
       0.0 1.0 0.0 1.0
000060 00 00 00 00 00 00 80 3f 00 00 00 00 00 00 80 3f
       0.0 1.0 0.0 1.0
000070 00 00 00 00 00 00 80 3f 00 00 00 00 00 00 80 3f
       0.0 1.0 0.0 1.0
000080 00 00 00 00 00 00 80 3f 00 00 00 00 00 00 80 3f
       0.0 1.0 0.0 1.0
000090 00 00 00 00 00 00 80 3f 00 00 00 00 00 00 80 3f
       0.0 1.0 0.0 1.0
0000a0 00 00 00 00 00 00 80 3f 00 00 00 00 00 00 80 3f
       0.0 1.0 0.0 1.0
0000b0 00 00 00 00 00 00 80 3f 00 00 00 00 00 00 80 3f
       0.0 1.0 0.0 1.0
0000c0 00 00 00 00 00 00 80 3f 00 00 00 00 00 00 80 3f
       0.0 1.0 0.0 1.0
0000d0 00 00 00 00 00 00 80 3f 00 00 00 00 00 00 80 3f
       0.0 1.0 0.0 1.0
0000e0 00 00 00 00 00 00 80 3f 00 00 00 00 00 00 80 3f
       0.0 1.0 0.0 1.0
0000f0 00 00 00 00 00 00 80 3f 00 00 00 00 00 00 80 3f
       0.0 1.0 0.0 1.0
000100 00 00 00 00 00 00 80 3f 00 00 00 00 00 00 80 3f
       0.0 1.0 0.0 1.0
000110 00 00 00 00 00 00 80 3f 00 00 00 00 00 00 80 3f
       0.0 1.0 0.0 1.0
000120 00 00 00 00 00 00 80 3f 00 00 00 00 00 00 80 3f
       0.0 1.0 0.0 1.0
000130 00 00 00 00 00 00 80 3f 00 00 00 00 00 00 80 3f
       0.0 1.0 0.0 1.0
000140 00 00 00 00 00 00 80 3f 00 00 00 00 00 00 80 3f
       0.0 1.0 0.0 1.0
000150 00 00 00 00 00 00 80 3f 00 00 00 00 00 00 80 3f
       0.0 1.0 0.0 1.0
000160 00 00 00 00 00 00 80 3f 00 00 00 00 00 00 80 3f
       0.0 1.0 0.0 1.0
000170 00 00 00 00 00 00 80 3f 00 00 00 00 00 00 80 3f
       0.0 1.0 0.0 1.0
000180 00 00 00 00 00 00 80 3f 00 00 00 00 00 00 80 3f
       0.0 1.0 0.0 1.0
000190 00 00 00 00 00 00 80 3f 00 00 00 00 00 00 80 3f
       0.0 1.0 0.0 1.0
0001a0 00 00 00 00 00 00 80 3f 00 00 00 00 00 00 80 3f
       0.0 1.0 0.0 1.0
0001b0 00 00 00 00 00 00 80 3f 00 00 00 00 00 00 80 3f
       0.0 1.0 0.0 1.0
0001c0 00 00 00 00 00 00 80 3f 00 00 00 00 00 00 80 3f
       0.0 1.0 0.0 1.0
0001d0 00 00 00 00 00 00 80 3f 00 00 00 00 00 00 80 3f
       0.0 1.0 0.0 1.0
0001e0 00 00 00 00 00 00 80 3f 00 00 00 00 00 00 80 3f
       0.0 1.0 0.0 1.0
0001f0 00 00 00 00 00 00 80 3f 00 00 00 00 00 00 80 3f
       0.0 1.0 0.0 1.0
000200 a4 6a 57 3f 41 51 0a 3f 1b 00 43 3f 29 dd 25 3f
       0.84147096 0.54030234 0.76172036 0.6479059
000210 ce 7a 2e 3f b0 54 3b 3f 3a cd 1a 3f aa e4 4b 3f
       0.68156135 0.731761 0.604694 0.7964579
000220 ba 7d 08 3f 0d 94 58 3f e3 96 ef 3e d5 3d 62 3f
       0.53316844 0.8460091 0.46794805 0.883756
000230 f0 90 d1 3e c7 92 69 3f 61 d7 b6 3e a9 1e 6f 3f
       0.4093089 0.9123959 0.35711196 0.9340616
000240 3e 39 9f 3e 6b 4e 73 3f 17 76 8a 3e 11 76 76 3f
       0.3109836 0.9504153 0.2704322 0.96273905
000250 25 8f 70 3e f1 d5 78 3f 61 ce 50 3e 09 9f 7a 3f
       0.23492105 0.9720145 0.20391227 0.9789892
000260 3a 23 35 3e 83 f6 7b 3f e3 10 1d 3e 7c f8 7c 3f
       0.17689219 0.9842302 0.15338473 0.9881666
000270 f3 25 08 3e 28 ba 7d 3f 5c f9 eb 3d 84 4b 7e 3f
       0.13295726 0.99112177 0.11522171 0.9933398
000280 76 75 cc 3d 98 b8 7e 3f bf 20 b1 3d 6e 0a 7f 3f
       0.099833414 0.9950042 0.08648824 0.9962529
000290 36 6f 99 3d d1 47 7f 3f 60 e6 84 3d de 75 7f 3f
       0.07491915 0.9971896 0.06489253 0.99789226
0002a0 ae 36 66 3d 68 98 7f 3f 12 62 47 3d 4f b2 7f 3f
       0.05620449 0.9984193 0.04867751 0.9988145
0002b0 fb ac 2c 3d bd c5 7f 3f c5 8a 15 3d 4f d4 7f 3f
       0.042157155 0.999111 0.036509294 0.9993333
0002c0 5b 81 01 3d 3c df 7f 3f a4 4d e0 3c 6e e7 7f 3f
       0.031617504 0.99950004 0.027380772 0.9996251
0002d0 a5 3e c2 3c 93 ed 7f 3f 82 36 a8 3c 2f f2 7f 3f
       0.023711512 0.99971884 0.020533804 0.9997892
0002e0 42 ab 91 3c a3 f5 7f 3f a3 4a 7c 3c 3b f8 7f 3f
       0.017781857 0.99984187 0.015398654 0.99988145
0002f0 49 7a 5a 3c 2c fa 7f 3f fa 31 3d 3c a1 fb 7f 3f
       0.013334819 0.99991107 0.01154756 0.9999333
000300 57 d6 23 3c b9 fc 7f 3f ba e0 0d 3c 8b fd 7f 3f
       0.009999833 0.99995 0.008659536 0.9999625
000310 16 b9 f5 3b 28 fe 7f 3f b3 c9 d4 3b 9e fe 7f 3f
       0.0074988706 0.99997187 0.006493771 0.9999789
000320 5a 44 b8 3b f7 fe 7f 3f a3 91 9f 3b 39 ff 7f 3f
       0.0056233825 0.9999842 0.004869656 0.99998814
000330 5a 2e 8a 3b 6b ff 7f 3f ea 51 6f 3b 90 ff 7f 3f
       0.0042169513 0.9999911 0.003651733 0.9999933
000340 1c 3e 4f 3b ac ff 7f 3f fe 76 33 3b c1 ff 7f 3f
       0.0031622713 0.999995 0.0027384157 0.99999624
000350 03 69 1b 3b d1 ff 7f 3f 67 94 06 3b dd ff 7f 3f
       0.0023713715 0.9999972 0.0020535232 0.9999979
000360 20 15 e9 3a e6 ff 7f 3f 54 d7 c9 3a ec ff 7f 3f
       0.0017782785 0.99999845 0.0015399256 0.9999988
000370 8b c9 ae 3a f1 ff 7f 3f 09 5c 97 3a f5 ff 7f 3f
       0.0013335211 0.9999991 0.0011547814 0.99999934
000380 6d 12 83 3a f8 ff 7f 3f e1 01 63 3a fa ff 7f 3f
       0.0009999998 0.9999995 0.0008659643 0.99999964
000390 89 94 44 3a fb ff 7f 3f 43 3b 2a 3a fd ff 7f 3f
       0.000749894 0.9999997 0.0006493816 0.9999998
0003a0 13 6a 13 3a fd ff 7f 3f ab 4f ff 39 fe ff 7f 3f
       0.0005623411 0.9999998 0.00048696747 0.9999999
0003b0 21 17 dd 39 ff ff 7f 3f d6 74 bf 39 ff ff 7f 3f
       0.00042169637 0.99999994 0.00036517408 0.99999994
0003c0 61 cb a5 39 ff ff 7f 3f 75 92 8f 39 ff ff 7f 3f
       0.00031622782 0.99999994 0.00027384204 0.99999994
0003d0 0d a8 78 39 00 00 80 3f e2 53 57 39 00 00 80 3f
       0.00023713727 1.0 0.00020535247 1.0
0003e0 53 77 3a 39 00 00 80 3f 19 79 21 39 00 00 80 3f
       0.00017782794 1.0 0.00015399269 1.0
0003f0 6d d4 0b 39 00 00 80 3f dd 2c f2 38 00 00 80 3f
       0.00013335208 1.0 0.00011547816 1.0
