NeuralMidiFXPlugin/NeuralMidiFXPlugin/PretrainedModelsSerialization/serializedONNX/model_2_input_layer.onnx (onnx, 132749 bytes, 3 tensors)

Linear.bias f4 [512]
000000 df 9d 80 3a 00 00 00 00 75 36 3d 3d cd 80 b5 bc
       0.0009812674 0.0 0.046194512 -0.022156144
000010 a1 ed 66 bc a9 33 fa 3b 99 f4 34 3e c0 69 93 3d
       -0.014094741 0.007635553 0.17671432 0.071979046
000020 ca 9f 83 3d 6e bf 84 3d 95 15 19 3d 00 00 00 00
       0.06426962 0.06481825 0.037374098 0.0
000030 c7 41 51 bc 87 18 e1 3d 00 00 00 00 a6 d1 9c 3d
       -0.01277203 0.10991006 0.0 0.07657175
000040 91 65 2c 3e 4d a2 ea 3d 52 6a b7 bd 00 00 00 00
       0.1683562 0.11456738 -0.08955826 0.0
000050 00 00 00 00 00 00 00 00 00 00 00 00 05 4a 38 3d
       0.0 0.0 0.0 0.044992466
000060 83 9a a8 3d 8f 43 3a bb 52 f2 c5 bc 04 1c c7 bc
       0.08232596 -0.0028421616 -0.024163399 -0.024305351
000070 41 5a 0b bb 3f 16 59 ba 13 57 9c 3e 00 00 00 00
       -0.0021263512 -0.0008281208 0.30535182 0.0
000080 60 42 0c bc b0 4a 32 3d 46 dc 47 3a e8 a9 94 3d
       -0.008560747 0.04352826 0.0007624071 0.072589695
000090 2e 7a 18 bb 23 f6 41 3e 92 4d 26 3e 44 9f 46 3d
       -0.0023266184 0.1894155 0.16240528 0.04849173
0000a0 00 00 00 00 ff 75 85 3d 71 22 67 bb 98 d6 4d 3d
       0.0 0.065166466 -0.0035268331 0.05025348
0000b0 15 32 80 ba 39 73 05 bc 4b 85 31 3d 39 44 02 ba
       -0.0009780551 -0.008145147 0.04334001 -0.00049692724
0000c0 b7 6d 83 bc e1 04 75 bd 00 00 00 00 c3 7e c0 3d
       -0.016043527 -0.059819106 0.0 0.09399178
0000d0 c9 14 1c ba 00 00 00 00 de 18 7d 3c 00 00 00 00
       -0.0005954025 0.0 0.015447823 0.0
0000e0 00 00 00 00 89 96 04 bc d4 ce 51 bd b2 bc 01 3d
       0.0 -0.008092531 -0.051222637 0.031674094
0000f0 00 00 00 00 ea e4 e4 3c 00 00 00 00 00 00 00 00
       0.0 0.027941186 0.0 0.0
000100 77 cc 8d 3d 58 a4 db 3d 92 e3 4f bc 00 00 00 00
       0.06923764 0.107247055 -0.012688534 0.0
000110 90 0e 2b 3d 56 82 58 3d de ce 5e 3a 0f 9d 71 bd
       0.041761935 0.052858673 0.00084994535 -0.058987673
000120 68 2e 79 bb 00 00 00 00 71 6d 44 bb 3f df bf 3c
       -0.0038022045 0.0 -0.0029972459 0.023421882
000130 e5 5e 35 bd 6b cd b0 3c 77 b9 36 3d 0c e9 96 3d
       -0.04427995 0.021582326 0.044610467 0.07368669
000140 05 93 0d 3e 00 00 00 00 35 2b 76 3d 00 00 00 00
       0.13825615 0.0 0.0600998 0.0
000150 cc bf e3 3d 82 92 b1 3a 00 00 00 00 09 27 ae ba
       0.11120567 0.0013547691 0.0 -0.001328678
000160 00 00 00 00 d3 9b 78 bc 05 c3 e4 3d 96 4d b6 bb
       0.0 -0.01517387 0.111700095 -0.005563448
000170 a5 42 24 bc 37 dc 77 3e 00 00 00 00 58 94 96 3c
       -0.010025655 0.24205099 0.0 0.018381283
000180 60 31 4f bc d1 2b 1f bc dd a1 92 bb ad ed 3b 3d
       -0.012646049 -0.0097150365 -0.004474862 0.045880962
000190 bd 96 ab b9 3c 05 6c bd 0b bc e7 ba ba b0 bf 3d
       -0.0003272797 -0.05762218 -0.0017679943 0.0935988
0001a0 7c 92 4d ba 16 24 84 3e b2 a4 70 ba 00 00 00 00
       -0.0007841957 0.2580878 -0.0009179815 0.0
0001b0 0d 74 0c ba 2d 9f 43 bc 1e 2b a7 bd 71 73 c9 3c
       -0.0005357869 -0.011939806 -0.08162521 0.02459118
0001c0 bc 58 bc b7 84 22 0e 3d e6 3d 4f bc b5 5b f4 3d
       -2.2452667e-05 0.034700885 -0.012649035 0.11931554
0001d0 c1 57 38 bc e4 d6 2e 3c f3 df 4e 3d 00 00 00 00
       -0.011251391 0.010671351 0.050506543 0.0
0001e0 81 6c ab 3c 8b 6d 4b 3d d0 f0 b6 3d 0a 04 97 3d
       0.020925762 0.049665015 0.0893265 0.07373817
0001f0 0a 01 3c bc 14 73 af bb e6 54 ae 3c 24 78 36 ba
       -0.011474857 -0.0053542946 0.021280717 -0.00069606514
000200 6d 76 f0 3b 03 6f 58 3c b6 0f a4 bb 00 00 00 00
       0.007338336 0.013210061 -0.0050067557 0.0
000210 00 00 00 00 b5 58 d3 3d 1c e7 35 bc cc 01 82 3e
       0.0 0.10319654 -0.011102464 0.25391996
000220 bb 08 9f 3a 7e a2 25 bb 64 20 9a 3d 4b f8 09 bb
       0.0012133339 -0.0025273855 0.07525709 -0.0021052535
000230 00 00 00 00 fa 0c 87 b9 8f 51 48 3e 8e 0a 31 bc
       0.0 -0.00025758875 0.19562362 -0.010805739
000240 48 ca 82 bd 20 25 29 bc 0a bc e1 bc 97 82 66 3d
       -0.06386238 -0.010323793 -0.027555484 0.056276884
000250 00 00 00 00 00 00 00 00 1a 29 7f bc 64 de 3f b9
       0.0 0.0 -0.015573764 -0.00018298026
000260 00 00 00 00 09 2a f6 bc 2b e4 e6 3c 00 00 00 00
       0.0 -0.03004934 0.02818497 0.0
000270 00 00 00 00 a7 cf 6b 3d 00 00 00 00 00 00 00 00
       0.0 0.05757108 0.0 0.0
000280 5b 20 47 3d c5 70 8c bb 00 00 00 00 00 00 00 00
       0.04861484 -0.004285904 0.0 0.0
000290 00 00 00 00 93 3e 5e bc 67 ef 17 bc 1a 8d b3 3c
       0.0 -0.013564724 -0.009273387 0.021917868
0002a0 00 00 00 00 36 da aa 3d 00 00 00 00 60 7b 9d 3c
       0.0 0.08342402 0.0 0.019223869
0002b0 9a 55 a5 bb 44 f4 50 3c 00 00 00 00 e7 19 8b ba
       -0.005045605 0.01275355 0.0 -0.0010612578
0002c0 fd 4f 14 3c 76 13 6a bc 00 00 00 00 2e 5e 3f bc
       0.009052274 -0.014286866 0.0 -0.011680169
0002d0 de dc b0 bc a4 cc 1c bc 0e 4c b7 bb 00 00 00 00
       -0.021589693 -0.0095702745 -0.005593783 0.0
0002e0 00 00 00 00 63 f2 8a b9 a5 9f 2a bc e6 5c 79 bb
       0.0 -0.00026502003 -0.010414039 -0.0038049757
0002f0 12 d4 ca ba 00 00 00 00 51 14 f0 3d 00 00 00 00
       -0.0015474579 0.0 0.11722625 0.0
000300 3f 97 c7 3d 58 0b 15 bd 35 b2 09 3e 13 6a 9d 3d
       0.09745645 -0.03638777 0.13446887 0.07686248
000310 a8 54 44 3e 86 fd b8 b9 00 00 00 00 00 00 00 00
       0.19172919 -0.00035284105 0.0 0.0
000320 00 00 00 00 70 e0 c8 bc 00 00 00 00 09 13 4b bc
       0.0 -0.024521083 0.0 -0.012394675
000330 2d 85 31 bb 00 00 00 00 48 ee 7c ba f5 34 1f 3c
       -0.0027087436 0.0 -0.0009648544 0.009717216
000340 e5 43 e2 bc 81 0b 05 bd 18 d0 ef 3d 9f 52 89 bd
       -0.027620265 -0.032481674 0.117096126 -0.06705212
000350 d6 8f 40 3d ec 4e e8 3d a1 bc 98 bd 00 00 00 00
       0.047012173 0.11343178 -0.07457853 0.0
000360 f2 ca 6c ba e2 cf 53 bd 00 00 00 00 78 3f a8 3d
       -0.0009032927 -0.051711924 0.0 0.08215231
000370 b5 37 83 bb 38 84 a4 ba f0 21 9f bc 16 84 c3 3d
       -0.0040044435 -0.0012551611 -0.019425362 0.09546678
000380 3e 9a bb bc 00 00 00 00 7a e7 a3 ba 96 87 10 3a
       -0.022900697 0.0 -0.0012504898 0.0005513368
000390 38 30 7e bc 32 ca 07 3e 00 00 00 00 9b ab 3e bd
       -0.015514426 0.13260725 0.0 -0.046550374
0003a0 dd 35 92 bd 00 00 00 00 95 c5 00 be e3 86 3a bd
       -0.0713918 0.0 -0.12575372 -0.045538794
0003b0 17 bb 90 bd 54 8e 9e bd 00 00 00 00 da 78 31 bd
       -0.070669346 -0.07741991 0.0 -0.043328144
0003c0 c3 d1 ce bc 36 51 3c bd 05 18 57 bd 58 28 24 bd
       -0.025246507 -0.045975886 -0.05251314 -0.040077537
0003d0 78 3b 00 3e e1 76 43 bd 00 00 00 00 c1 10 aa 3d
       0.12522686 -0.047720794 0.0 0.08303977
0003e0 b1 dd 1b 3e 00 00 00 00 23 af 2e be 5c fc 2c 3d
       0.15221287 0.0 -0.17058997 0.042232856
0003f0 db 42 47 bc b8 19 c8 bc 00 00 00 00 da 87 b1 bc
       -0.012161936 -0.024426326 0.0 -0.021671224

onnx::MatMul_14 f4 [27, 512]
000000 3a 66 5c 3d 67 86 9f 3a 50 bc 0e bd b3 72 76 3c
       0.05380843 0.0012170792 -0.034847558 0.015041995
000010 33 e9 7d 3d fa 9b 50 bd 12 50 9f 3d ca a9 5a 3d
       0.061989974 -0.05093 0.07778944 0.05338458
000020 8f 7b 83 bd 6d 3f a0 3d 82 c1 be bd e3 d0 73 bd
       -0.06420051 0.078245975 -0.093142524 -0.05952538
000030 2d 58 7b 3d 7b 23 af bd fa c1 83 3c 3a 16 a8 3c
       0.061363388 -0.08551689 0.016083706 0.020518411
000040 ba eb 1f 3d ba 2e 0f 3d cb c1 90 3d 7a 29 db 3c
       0.039043166 0.03495667 0.07068213 0.026753176
000050 ed 98 8d bc 5f ad b8 bd f3 df 6b 3d 1d 30 6c 3d
       -0.017284835 -0.09017443 0.05758662 0.057663072
000060 fb 29 a7 3d 17 54 8f bd 1a 28 27 bc 80 fe 82 3d
       0.08162304 -0.06998461 -0.010202432 0.06396198
000070 b7 66 83 bd 13 4b bd 3d 35 72 c9 bd e0 9f 7d bd
       -0.06416076 0.09242835 -0.098362364 -0.061920047
000080 27 0c 53 bd 93 e2 8d bc e7 a4 b4 3c ed d7 99 3d
       -0.05152526 -0.017319953 0.022051288 0.07511888
000090 37 8d a2 3d 88 9c b4 3d 7b e3 a0 bd f3 d2 5e 3c
       0.07937091 0.088189185 -0.078558885 0.013600099
0000a0 17 f9 49 bd ad 56 c0 bc c3 79 9c 3d ca ca c6 bd
       -0.049309816 -0.02347883 0.07640412 -0.09706648
0000b0 ea 06 c1 3d b5 d5 a4 bd d0 be bf bd c7 47 29 bd
       0.09425147 -0.08048574 -0.093625665 -0.041328218
0000c0 23 30 9d bd 33 6f cc 3d 38 19 87 3d 87 3c 32 3d
       -0.07675197 0.09982147 0.06596607 0.043514755
0000d0 cd af 65 bc 0d bc 83 bc 6a fa 25 bd ba 3d 7e bd
       -0.014018965 -0.01608088 -0.040522017 -0.062070586
0000e0 c0 67 62 3d 5d 31 54 3d b2 4a b2 3d 9d 5c c9 bd
       0.055274725 0.05180489 0.08705653 -0.09832118
0000f0 6b 48 94 bd f2 d1 83 bd a0 0a 3c bd 4d 0e 6e bd
       -0.07240375 -0.06436528 -0.04590857 -0.058119107
000100 9a c2 60 3c 53 65 6b 3d 88 19 9c bd c0 82 07 bd
       0.013718272 0.057469677 -0.07622057 -0.033083677
000110 22 4a 91 3d 6d 8e 09 3d ef b9 a4 bd 33 92 44 3b
       0.07094218 0.033583093 -0.080432765 0.0029994368
000120 f7 18 50 bd 4b 41 85 bd cd 39 87 bc 3b 3b c1 bd
       -0.05080506 -0.06506594 -0.016507054 -0.094351254
000130 35 1c c3 bd c0 3c 0d 3c bb 02 c3 bd 00 8e 89 bd
       -0.095268644 0.008620441 -0.09522005 -0.067165375
000140 fb 5c 96 bd 60 27 e6 bc da 25 9b 3d ed 61 9e bd
       -0.07341953 -0.028094947 0.07575579 -0.077335216
000150 5a b4 50 bd 53 dd 30 bd 6a 17 b2 3d 80 c9 c1 3c
       -0.050953247 -0.04317982 0.08695872 0.023655653
000160 cd b3 34 bd 4d 28 9a 3b d3 75 a1 3c 07 a3 23 3d
       -0.044116784 0.0047045113 0.019709503 0.039950397
000170 d7 09 0a 3d 5a b9 03 3d 3b 8b c7 bd aa d3 48 bd
       0.03370079 0.032159187 -0.09743353 -0.049029984
000180 9d c4 2b bd 57 00 61 3d 67 85 2a 3b 75 05 9d bd
       -0.041935552 0.054931965 0.0026019455 -0.076670565
000190 53 68 c7 3c 1a 52 a6 bc a0 74 32 bd 1d be a1 3d
       0.024341738 -0.020302821 -0.043568254 0.07897589
0001a0 07 44 70 3d a0 e7 fa bc 8a c2 8a bd bb 4e af bd
       0.058658626 -0.030628026 -0.06775387 -0.085599385
0001b0 b3 75 01 bc 80 5c 22 3c 9a ec 92 bb cd 28 3f 3b
       -0.007901597 0.009909749 -0.0044837715 0.0029168606
0001c0 fd bb 55 bd 50 e1 6e bd 9d 53 66 bd d0 51 8c bd
       -0.052181233 -0.058320343 -0.056232084 -0.06851542
0001d0 80 37 1d bc 63 67 25 3d 07 9a d7 3c b3 08 98 bb
       -0.009595752 0.0403818 0.026318563 -0.004639709
0001e0 20 ef b2 bd 33 19 1c 3d dd df a4 3d 53 1f 77 3d
       -0.08737016 0.03810997 0.08050511 0.060332607
0001f0 72 74 ad 3d 1d d5 53 3d 53 1f a9 bc c2 1f ac bd
       0.08469476 0.051716913 -0.02064482 -0.08404495
000200 b3 47 bc 3d 1a 82 24 3d cd 44 0f 3c cd 07 39 bc
       0.09193363 0.040163137 0.008744431 -0.011293364
000210 40 e1 c4 3c 17 00 cc 3d 60 84 b7 3c ad 11 03 bd
       0.024033189 0.09960955 0.022401989 -0.03199928
000220 a0 80 2f 3d 9a 21 b9 3c fd 4f 13 bd 9a 77 a9 bc
       0.042847276 0.02259903 -0.035964955 -0.020686913
000230 4b 27 cc 3d 77 1d 32 bd ed 38 ce bc 9f fa c1 3d
       0.09968432 -0.04348513 -0.025173629 0.0947163
000240 c7 e2 8c 3d 4a 45 85 3d c0 22 a3 3c 42 5f a8 bd
       0.06879192 0.065073565 0.019914031 -0.08221294
000250 ef 82 87 3d 53 2b ad bd 0d 11 06 3d cd f7 8d 3b
       0.066167705 -0.08455529 0.032731105 0.0043325187
000260 6a 8d 40 bd 6a 25 c6 bd 1b 4a c5 3d 7a 7d 64 3d
       -0.047009863 -0.09675105 0.09633275 0.055783726
000270 fa 85 20 bd 2d 6d af 3d 07 45 93 3c f8 27 bc bd
       -0.03919027 0.085657455 0.01797725 -0.09187311
000280 cd 10 8c bb 33 9b ec ba 15 87 b9 3d 63 72 88 bd
       -0.0042744637 -0.0018051624 0.09058968 -0.066624425
000290 12 55 96 3d b7 6e 19 3d 3a 34 68 3d 6a ae 0d bd
       0.073404446 0.0374591 0.056690432 -0.034590162
0002a0 6b 84 94 bd 03 f3 45 3d fd 0b 03 3d fa 1a 5c 3d
       -0.07251819 0.048327457 0.031993855 0.053736664
0002b0 53 17 be bc 70 c2 35 bd f7 f2 70 3d 77 4f 89 bd
       -0.023204481 -0.044374883 0.05882546 -0.0670461
0002c0 4a 88 89 bd 17 ea 04 3d 80 aa 40 3c 80 bd 3b 3d
       -0.06715448 0.032449808 0.0117594 0.04583502
0002d0 f0 35 9e bd cd 34 06 ba 4a de 64 bd 4f 25 cc bd
       -0.077251315 -0.0005119562 -0.055876054 -0.099680535
0002e0 8f 50 81 bd 53 d9 f4 bc cd 6c a4 bd 4b a4 c5 3d
       -0.063141935 -0.029888785 -0.080285646 0.09650477
0002f0 17 df 07 3d ad aa 73 3d a7 72 12 bd 33 55 91 3d
       0.03317174 0.05948894 -0.035753872 0.070963286
000300 77 bd 17 3d 5a 6a a3 bd 43 fe b8 bd c5 77 90 bd
       0.037045922 -0.07979269 -0.090328716 -0.07054094
000310 d0 51 15 bd b0 ec 5b bd 23 b6 93 3d 2d c7 d5 bc
       -0.036454976 -0.05369252 0.07212474 -0.026095951
000320 53 21 a3 bd 25 86 8a bd 33 74 6d 3d b7 58 30 3d
       -0.079653405 -0.06763867 0.057972144 0.043053355
000330 82 a2 a3 bd df 71 ae bd 2d b1 cb 3d ca 86 01 bd
       -0.0798998 -0.08517813 0.09945903 -0.031622685
000340 70 89 6b 3d 87 8c 6a bd e0 1e f2 bc 2b 5b ad 3d
       0.057504117 -0.057262924 -0.029555738 0.084646545
000350 0d 8d b6 bc 83 89 b2 3d 87 bb c0 3d 4d 03 5a bd
       -0.022284055 0.087176345 0.09410768 -0.053225804
000360 c7 df 4e 3d fd 8a 9f 3d e0 ea 9e 3d 63 74 45 bd
       0.05050638 0.07790182 0.077596426 -0.0482067
000370 cd 84 ca b9 bb 07 af bd 3f bd b8 3d 18 47 8a bd
       -0.00038627387 -0.08546396 0.09020471 -0.06751841
000380 0d 59 6d bc 33 95 ab 3b 7a 7d b9 3d 00 5c 33 3c
       -0.014486563 0.005236292 0.09057136 0.0109472275
000390 c5 87 8e 3d c8 e9 cb 3d 4b 01 c1 3d 0d 42 bd 3d
       0.0695949 0.099566996 0.09424075 0.09241114
0003a0 e7 4b 43 3d 80 8a 5b bd 35 c7 8d bd 6a 04 2c 3d
       0.047679808 -0.05359888 -0.06922761 0.041996397
0003b0 bb 06 bf 3d 03 9f 00 bd ba 43 c2 3c 05 14 aa 3d
       0.093274556 -0.031401645 0.023713935 0.083046
0003c0 65 b7 c6 3d 8a 5e 3b bd 17 3a 9b 3d da 67 a5 3d
       0.097029485 -0.045744456 0.07579439 0.08076449
0003d0 9a c5 d7 3a 87 c5 da 3c fd e2 63 bd 60 7b e2 bc
       0.0016462088 0.026705517 -0.055636395 -0.02764672
0003e0 13 fe ea bc f3 17 24 bc 00 73 b8 3b 5a 1b 5f 3c
       -0.028685605 -0.010015476 0.0056289434 0.013617361
0003f0 52 f8 82 bd 0d 0a 7c 3c 1a 94 8d 3b 23 60 18 3d
       -0.063950196 0.015383256 0.0043206336 0.037201058

onnx::Add_15 f4 [1, 32, 512]
000000 00 00 00 00 00 00 80 3f 00 00 00 00 00 00 80 3f
       0.0 1.0 0.0 1.0
000010 00 00 00 00 00 00 80 3f 00 00 00 00 00 00 80 3f
       0.0 1.0 0.0 1.0
000020 00 00 00 00 00 00 80 3f 00 00 00 00 00 00 80 3f
       0.0 1.0 0.0 1.0
000030 00 00 00 00 00 00 80 3f 00 00 00 00 00 00 80 3f
       0.0 1.0 0.0 1.0
000040 00 00 00 00 00 00 80 3f 00 00 00 00 00 00 80 3f
       0.0 1.0 0.0 1.0
000050 00 00 00 00 00 00 80 3f 00 00 00 00 00 00 80 3f
       0.0 1.0 0.0 1.0
000060 00 00 00 00 00 00 80 3f 00 00 00 00 00 00 80 3f
       0.0 1.0 0.0 1.0
000070 00 00 00 00 00 00 80 3f 00 00 00 00 00 00 80 3f
       0.0 1.0 0.0 1.0
000080 00 00 00 00 00 00 80 3f 00 00 00 00 00 00 80 3f
       0.0 1.0 0.0 1.0
000090 00 00 00 00 00 00 80 3f 00 00 00 00 00 00 80 3f
       0.0 1.0 0.0 1.0
0000a0 00 00 00 00 00 00 80 3f 00 00 00 00 00 00 80 3f
       0.0 1.0 0.0 1.0
0000b0 00 00 00 00 00 00 80 3f 00 00 00 00 00 00 80 3f
       0.0 1.0 0.0 1.0
0000c0 00 00 00 00 00 00 80 3f 00 00 00 00 00 00 80 3f
       0.0 1.0 0.0 1.0
0000d0 00 00 00 00 00 00 80 3f 00 00 00 00 00 00 80 3f
       0.0 1.0 0.0 1.0
0000e0 00 00 00 00 00 00 80 3f 00 00 00 00 00 00 80 3f
       0.0 1.0 0.0 1.0
0000f0 00 00 00 00 00 00 80 3f 00 00 00 00 00 00 80 3f
       0.0 1.0 0.0 1.0
000100 00 00 00 00 00 00 80 3f 00 00 00 00 00 00 80 3f
       0.0 1.0 0.0 1.0
000110 00 00 00 00 00 00 80 3f 00 00 00 00 00 00 80 3f
       0.0 1.0 0.0 1.0
000120 00 00 00 00 00 00 80 3f 00 00 00 00 00 00 80 3f
       0.0 1.0 0.0 1.0
000130 00 00 00 00 00 00 80 3f 00 00 00 00 00 00 80 3f
       0.0 1.0 0.0 1.0
000140 00 00 00 00 00 00 80 3f 00 00 00 00 00 00 80 3f
       0.0 1.0 0.0 1.0
000150 00 00 00 00 00 00 80 3f 00 00 00 00 00 00 80 3f
       0.0 1.0 0.0 1.0
000160 00 00 00 00 00 00 80 3f 00 00 00 00 00 00 80 3f
       0.0 1.0 0.0 1.0
000170 00 00 00 00 00 00 80 3f 00 00 00 00 00 00 80 3f
       0.0 1.0 0.0 1.0
000180 00 00 00 00 00 00 80 3f 00 00 00 00 00 00 80 3f
       0.0 1.0 0.0 1.0
000190 00 00 00 00 00 00 80 3f 00 00 00 00 00 00 80 3f
       0.0 1.0 0.0 1.0
0001a0 00 00 00 00 00 00 80 3f 00 00 00 00 00 00 80 3f
       0.0 1.0 0.0 1.0
0001b0 00 00 00 00 00 00 80 3f 00 00 00 00 00 00 80 3f
       0.0 1.0 0.0 1.0
0001c0 00 00 00 00 00 00 80 3f 00 00 00 00 00 00 80 3f
       0.0 1.0 0.0 1.0
0001d0 00 00 00 00 00 00 80 3f 00 00 00 00 00 00 80 3f
       0.0 1.0 0.0 1.0
0001e0 00 00 00 00 00 00 80 3f 00 00 00 00 00 00 80 3f
       0.0 1.0 0.0 1.0
0001f0 00 00 00 00 00 00 80 3f 00 00 00 00 00 00 80 3f
       0.0 1.0 0.0 1.0
000200 00 00 00 00 00 00 80 3f 00 00 00 00 00 00 80 3f
       0.0 1.0 0.0 1.0
000210 00 00 00 00 00 00 80 3f 00 00 00 00 00 00 80 3f
       0.0 1.0 0.0 1.0
000220 00 00 00 00 00 00 80 3f 00 00 00 00 00 00 80 3f
       0.0 1.0 0.0 1.0
000230 00 00 00 00 00 00 80 3f 00 00 00 00 00 00 80 3f
       0.0 1.0 0.0 1.0
000240 00 00 00 00 00 00 80 3f 00 00 00 00 00 00 80 3f
       0.0 1.0 0.0 1.0
000250 00 00 00 00 00 00 80 3f 00 00 00 00 00 00 80 3f
       0.0 1.0 0.0 1.0
000260 00 00 00 00 00 00 80 3f 00 00 00 00 00 00 80 3f
       0.0 1.0 0.0 1.0
000270 00 00 00 00 00 00 80 3f 00 00 00 00 00 00 80 3f
       0.0 1.0 0.0 1.0
000280 00 00 00 00 00 00 80 3f 00 00 00 00 00 00 80 3f
       0.0 1.0 0.0 1.0
000290 00 00 00 00 00 00 80 3f 00 00 00 00 00 00 80 3f
       0.0 1.0 0.0 1.0
0002a0 00 00 00 00 00 00 80 3f 00 00 00 00 00 00 80 3f
       0.0 1.0 0.0 1.0
0002b0 00 00 00 00 00 00 80 3f 00 00 00 00 00 00 80 3f
       0.0 1.0 0.0 1.0
0002c0 00 00 00 00 00 00 80 3f 00 00 00 00 00 00 80 3f
       0.0 1.0 0.0 1.0
0002d0 00 00 00 00 00 00 80 3f 00 00 00 00 00 00 80 3f
       0.0 1.0 0.0 1.0
0002e0 00 00 00 00 00 00 80 3f 00 00 00 00 00 00 80 3f
       0.0 1.0 0.0 1.0
0002f0 00 00 00 00 00 00 80 3f 00 00 00 00 00 00 80 3f
       0.0 1.0 0.0 1.0
000300 00 00 00 00 00 00 80 3f 00 00 00 00 00 00 80 3f
       0.0 1.0 0.0 1.0
000310 00 00 00 00 00 00 80 3f 00 00 00 00 00 00 80 3f
       0.0 1.0 0.0 1.0
000320 00 00 00 00 00 00 80 3f 00 00 00 00 00 00 80 3f
       0.0 1.0 0.0 1.0
000330 00 00 00 00 00 00 80 3f 00 00 00 00 00 00 80 3f
       0.0 1.0 0.0 1.0
000340 00 00 00 00 00 00 80 3f 00 00 00 00 00 00 80 3f
       0.0 1.0 0.0 1.0
000350 00 00 00 00 00 00 80 3f 00 00 00 00 00 00 80 3f
       0.0 1.0 0.0 1.0
000360 00 00 00 00 00 00 80 3f 00 00 00 00 00 00 80 3f
       0.0 1.0 0.0 1.0
000370 00 00 00 00 00 00 80 3f 00 00 00 00 00 00 80 3f
       0.0 1.0 0.0 1.0
000380 00 00 00 00 00 00 80 3f 00 00 00 00 00 00 80 3f
       0.0 1.0 0.0 1.0
000390 00 00 00 00 00 00 80 3f 00 00 00 00 00 00 80 3f
       0.0 1.0 0.0 1.0
0003a0 00 00 00 00 00 00 80 3f 00 00 00 00 00 00 80 3f
       0.0 1.0 0.0 1.0
0003b0 00 00 00 00 00 00 80 3f 00 00 00 00 00 00 80 3f
       0.0 1.0 0.0 1.0
0003c0 00 00 00 00 00 00 80 3f 00 00 00 00 00 00 80 3f
       0.0 1.0 0.0 1.0
0003d0 00 00 00 00 00 00 80 3f 00 00 00 00 00 00 80 3f
       0.0 1.0 0.0 1.0
0003e0 00 00 00 00 00 00 80 3f 00 00 00 00 00 00 80 3f
       0.0 1.0 0.0 1.0
0003f0 00 00 00 00 00 00 80 3f 00 00 00 00 00 00 80 3f
       0.0 1.0 0.0 1.0
