NeuralMidiFXPlugin/NeuralMidiFXPlugin/PretrainedModelsSerialization/serializedONNX/model_3.onnx (onnx, 132729 bytes, 3 tensors)

Linear.bias f4 [512]
0.001364212 0.0 -0.0003663883 0.0 0.008333509 0.06816932 0.007506328 0.03133874
-0.033694852 -0.010805339 -0.02864823 0.08029141 0.0 0.0 0.0 -0.00843051
0.16901182 0.0 -0.001724033 -0.07719127 -0.047212612 0.0 -0.029276025 0.026877426
-0.0010634856 0.10018819 0.0 -0.025566928 0.044851236 0.12387862 -0.01783677 -0.0003190651
-0.00018983555 0.03750071 -0.017970767 0.03822555 0.0 -0.019542305 0.0 -2.8293913e-05
0.00022551112 0.028821478 -0.008221092 0.073842905 0.02417558 0.03621661 -0.0007119413 -0.0003971708
0.0 0.0012813453 0.009624817 0.0 -0.0005214934 -0.0050632255 0.0 0.0
-0.0026465843 -0.0006281552 -0.005491275 0.0 0.0 -0.052660804 0.022160849 0.0
0.00014433397 0.110531546 0.05172321 0.11336855 -9.829282e-05 0.0 0.10197475 0.0
0.0 -0.022129267 -0.02318975 0.0 -0.033975918 -0.000425195 0.20069905 -0.03588494
0.0145514775 -0.0045648827 0.0 0.0 0.1187273 -0.00037670007 0.0404486 -0.0006135845
0.0 0.030272458 0.0 -0.047518097 0.1077265 -0.00739729 0.0 -0.00054258766
-0.00025881425 -0.020231305 6.482251e-05 -0.012111701 0.09144131 -0.014571851 9.274195e-05 -4.6503505e-05
-0.00027350336 0.0 0.0012162683 -0.00018832058 0.0 0.010734345 -0.0091175055 0.10730643
0.08813599 -0.0010261761 -0.013079925 0.0 -0.00023401153 0.19851029 -0.011016036 0.1365457
0.13475434 0.19501811 -0.011814152 0.00022834375 0.10858999 -0.00027051417 0.007133565 0.13130464
0.037369575 -0.024298267 0.025890704 0.0044927597 -0.061442487 -7.262889e-05 0.0005530315 0.18674698
0.046017267 0.16516776 0.11723131 -0.004192157 5.3415624e-05 0.19273911 -0.075968154 0.0
0.20781888 0.0 -0.04428971 0.0 0.0 0.31017637 -0.03504504 0.0052944324
0.101501845 -0.010186251 -0.00088881684 -0.0067246994 0.07551842 0.029237194 0.0 0.061167285
-0.015190263 -0.034095217 -0.022816697 0.0467799 0.065697044 0.0 0.02096797 -0.0003150671
-0.014906404 -0.068441175 0.16255598 -0.00026396607 0.0 0.095131986 0.0 0.029132059
-0.025577065 -0.006251548 0.0 -0.041974556 -0.014236729 0.03032842 0.059507784 0.10799292
0.0 -0.022222199 -0.03112043 -0.005958662 0.0 -0.037035216 3.3039534e-05 0.0
-0.029029498 0.0 -0.0028871598 0.0 0.050197095 -0.0071166186 0.0 0.0
0.037909586 -0.0009987764 0.0 -0.0062566213 -0.0149384355 0.03008076 0.09946922 -0.0021877754
0.0 0.039557256 0.0 2.002983e-05 -0.09371958 0.037368063 0.059970584 0.0
0.0 -0.038640678 0.21751276 -0.013622277 0.32121778 0.0 -0.034112837 0.026757354
-0.00062372524 -0.0066175545 0.0 -0.0011902692 -7.843237e-05 0.0 0.0 -0.007955928
0.0 -0.005168116 -0.058253855 -0.027005812 0.0 0.055880297 0.032383174 0.016253252
-0.0014809263 -0.004179185 0.0 -0.005853512 -0.0053696395 0.1404312 0.0 -0.017027121
-0.19365458 0.111324914 -0.0016483425 -0.007774718 0.0 -8.6084656e-05 -0.08076158 -0.022777222
00000000: 5ccf b23a 0000 0000 ce17 c0b9 0000 0000
00000010: 4589 083c 5b9c 8b3d a5f7 f53b 0d5d 003d
00000020: 9d03 0abd e008 31bc b1af eabc d36f a43d
00000030: 0000 0000 0000 0000 0000 0000 1f20 0abc
00000040: 6f11 2d3e 0000 0000 f3f8 e1ba 7516 9ebd
00000050: 0362 41bd 0000 0000 46d4 efbc 0c2e dc3c
00000060: a864 8bba 772f cd3d 0000 0000 bc71 d1bc
00000070: eeb5 373d 13b4 fd3d 6b1e 92bc 3148 a7b9
00000080: 980e 47b9 589a 193d 6e37 93bc 6592 1c3d
00000090: 0000 0000 2f17 a0bc 0000 0000 b758 edb7
000000a0: 2e77 6c39 051b ec3c c2b1 06bc f33a 973d
000000b0: de0b c63c de57 143d 92a1 3aba 5d3b d0b9
000000c0: 0000 0000 d0f2 a73a 69b1 1d3c 0000 0000
000000d0: d4b4 08ba 6ae9 a5bb 0000 0000 0000 0000
000000e0: 5172 2dbb c8aa 24ba 27f0 b3bb 0000 0000
000000f0: 0000 0000 dbb2 57bd ab8a b53c 0000 0000
00000100: 5b58 1739 5d5e e23d b7db 533d c52d e83d
00000110: 8e22 ceb8 0000 0000 23d8 d03d 0000 0000
00000120: 0000 0000 7048 b5bc 6ef8 bdbc 0000 0000
00000130: 552a 0bbd b5ec deb9 0d84 4d3e 16fc 12bd
00000140: 5269 6e3c 0395 95bb 0000 0000 0000 0000
00000150: 4c27 f33d d47f c5b9 6ead 253d f5d8 20ba
00000160: 0000 0000 f2fd f73c 0000 0000 56a2 42bd
00000170: b69f dc3d f764 f2bb 0000 0000 713c 0eba
00000180: 76b1 87b9 1fbc a5bc 52f1 8738 2870 46bc
00000190: 9545 bb3d c6be 6ebc 757e c238 c20c 43b8
000001a0: 0065 8fb9 0000 0000 316b 9f3a ec77 45b9
000001b0: 0000 0000 1bdf 2f3c 9761 15bc 79c3 db3d
000001c0: a480 b43d c280 86ba 2f4d 56bc 0000 0000
000001d0: fe60 75b9 4846 4b3e 9b7c 34bc a3d2 0b3e
000001e0: 0bfd 093e d4b2 473e 2590 41bc 8f6f 6f39
000001f0: 6e64 de3d ccd3 8db9 aec0 e93b b974 063e
00000200: d710 193d 290d c7bc be18 d43c 0038 933b
00000210: 1eab 7bbd 5750 98b8 51f9 103a 9a3a 3f3e
00000220: 9a7c 3c3d bd21 293e f816 f03d 5d5e 89bb
00000230: 970a 6038 675d 453e 3195 9bbd 0000 0000
00000240: 79ce 543e 0000 0000 2069 35bd 0000 0000
00000250: 0000 0000 70cf 9e3e 638b 0fbd eb7c ad3b
00000260: 33e0 cf3d 3ce4 26bc 7dff 68ba de5a dcbb
00000270: 67a9 9a3d d782 ef3c 0000 0000 8c8a 7a3d
00000280: 95e0 78bc 6da7 0bbd 15ea babc 489c 3f3d
00000290: 2c8c 863d 0000 0000 05c5 ab3c 972f a5b9
000002a0: fd39 74bc e32a 8cbd 1375 263e ed64 8ab9
000002b0: 0000 0000 8fd4 c23d 0000 0000 5ba6 ee3c
000002c0: fe86 d1bc c9d9 ccbb 0000 0000 83ed 2bbd
000002d0: 2b41 69bc 4f73 f83c 6fbe 733d 642b dd3d
000002e0: 0000 0000 540b b6bc 46f0 febc e140 c3bb
000002f0: 0000 0000 3db2 17bd ee93 0a38 0000 0000
00000300: 45cf edbc 0000 0000 8136 3dbb 0000 0000
00000310: 789b 4d3d 8632 e9bb 0000 0000 0000 0000
00000320: 1547 1b3d 60e9 82ba 0000 0000 5804 cdbb
00000330: 57c0 74bc ed6b f63c 85b6 cb3d c860 0fbb
00000340: 0000 0000 ca06 223d 0000 0000 bb05 a837
00000350: 0df0 bfbd 410f 193d b7a3 753d 0000 0000
00000360: 0000 0000 b045 1ebd aabb 5e3e f92f 5fbc
00000370: a876 a43e 0000 0000 e7b9 0bbd 3d32 db3c
00000380: 7e81 23ba 12d8 d8bb 0000 0000 cf02 9cba
00000390: 0f7c a4b8 0000 0000 0000 0000 9559 02bc
000003a0: 0000 0000 4d59 a9bb 989b 6ebd 4b3b ddbc
000003b0: 0000 0000 bde2 643d 38a4 043d 8a25 853c
000003c0: a41b c2ba 8bf1 88bb 0000 0000 d1ce bfbb
000003d0: cdf3 afbb 32cd 0f3e 0000 0000 767c 8bbc
000003e0: 634d 46be 51fe e33d 320d d8ba 10c3 febb
000003f0: 0000 0000 5988 b4b8 5466 a5bd 4c97 babc

onnx::MatMul_14 f4 [27, 512]
-0.04395553 0.046126664 0.09767914 0.084803276 -0.04898218 -0.07699648 0.07890131 -0.038863804
0.062790625 -0.09836499 0.09361743 -0.093324125 -0.06354089 -0.08062704 -0.087002754 -0.07576094
-0.05745664 0.0048893215 0.07180532 -0.028781522 0.059991576 0.03672309 0.04966439 0.010757637
0.068001986 -0.0595935 -0.036653973 -0.07779018 0.0855019 -0.07130126 -0.045073725 -0.0004887939
0.07466203 0.029443145 0.07330624 0.0054164766 -0.08245728 -0.096821524 -0.082486786 -0.08642578
0.050161254 -0.0017099858 0.025025321 0.091047965 -0.056717493 -0.09252063 0.08914571 0.023206377
-0.061474096 -0.086368695 0.0892362 0.0032467842 -0.03696481 0.08041524 0.028099466 0.02401762
0.018372059 0.013920093 0.06728699 0.05991888 -0.054145277 0.08892792 -0.0100583555 0.018400503
0.0076478007 -0.03433174 0.06894002 0.0795662 0.016162932 -0.009341109 0.05170969 0.09339287
0.069713525 -0.018903984 -0.0066286805 -0.08053484 0.026769066 -0.0046749474 -0.062185742 -0.07341142
-0.032028843 -0.041762497 -0.043516517 -0.0034915449 0.046311986 0.0054857256 0.048439156 -0.029149378
0.033604693 -0.02686069 0.09635768 -0.043389022 0.044997226 -0.04704578 -0.07906884 -0.026935352
-0.055187907 0.083988644 -0.08316056 0.0015067578 -0.033676695 0.026419127 0.03983414 -0.0012079955
-0.06301557 0.06441354 0.006212223 -0.032817792 -0.00090965035 0.006000519 -0.04576323 0.0058505298
0.03380698 0.04519123 -0.051084913 0.013741362 0.09310732 -0.06294228 0.012233234 -0.066919446
-0.08402201 -0.04090294 0.045581665 -0.08854586 -0.08090585 0.02547487 0.08192163 -0.033612657
0.033632446 -0.07521935 0.03457433 -0.005639875 0.090818405 -0.010899675 0.05722318 0.084910624
0.09375186 -0.06319232 0.0022070408 -0.017432058 0.08315171 -0.05418048 -0.09908986 0.05565807
-0.012844026 -0.0039024712 0.09188527 0.010710823 -0.012842107 0.06863715 0.04398488 -0.051648166
0.058746304 -0.09406062 -0.08273299 -0.05154798 -0.0015061736 0.07668109 -0.06360286 0.056560554
0.037464093 0.053261507 0.0010728001 -0.013525414 0.042686917 0.068731286 0.042586125 -0.070437625
-0.022690618 -0.060025837 0.052057695 -0.045409895 -0.066934325 -0.09549325 -0.09336644 0.013919271
0.021626307 -0.0025048375 -0.09114038 0.03267466 -0.02257284 -0.030611038 -0.04846797 0.0067317844
0.08991821 0.019353855 -0.095542125 -0.07672109 -0.028571188 0.093595944 0.052605607 -0.05960859
0.07154646 0.0007220149 -0.015648354 -0.024615442 -0.0641055 0.046883583 -0.09347496 -0.02615348
-0.08621865 -0.0157251 -0.0052876114 -0.062820315 -0.062244654 -0.05599762 0.0237803 -0.015011144
-0.07478695 -0.012650835 -0.02104162 0.03990364 0.038075592 -0.024119366 -0.025852013 0.013144803
-0.048681524 -0.0066963434 0.016636455 -0.042553928 0.05246531 -0.09445026 0.009782517 -0.057509672
0.07242694 0.0447866 -0.088216 -0.04202291 0.06613507 -0.062359717 -0.08164871 -0.05618111
-0.043909278 -0.0018836617 0.08034264 -0.09825309 -0.09170826 -0.027064562 -0.08315968 0.05538633
-0.015467107 0.040513862 -0.08266123 0.02448659 -0.07439053 -0.032780766 -0.06824916 -0.061703146
-0.05642252 0.015113259 -0.03619002 0.053152323 -0.05311531 0.011253536 0.037556816 0.0757242
00000000: b70a 34bd 50ef 3c3d 000c c83d 57ad ad3d
00000010: 8aa1 48bd 55b0 9dbd 0397 a13d a72f 1fbd
00000020: 5f98 803d 9573 c9bd 7fba bf3d b820 bfbd
00000030: ba21 82bd ca1f a5bd 802e b2bd 8d28 9bbd
00000040: a757 6bbd 9a36 a03b ab0e 933d 3ac7 ebbc
00000050: bab9 753d f36a 163d e36c 4b3d cd40 303c
00000060: a044 8b3d 5018 74bd 7a22 16bd 7550 9fbd
00000070: 9f1b af3d 6506 92bd 3a9f 38bd 6722 00ba
00000080: 68e8 983d c032 f13c 9521 963d b37c b13b
00000090: 5ddf a8bd 5d4a c6bd d5ee a8bd 0000 b1bd
000000a0: e375 4d3d 9a21 e0ba e701 cd3c 5b77 ba3d
000000b0: 9a50 68bd 757b bdbd 0792 b63d 4d1b be3c
000000c0: 43cc 7bbd 12e2 b0bd 78c1 b63d 00c8 543b
000000d0: 6a68 17bd bfb0 a43d da30 e63c 9ac0 c43c
000000e0: 0081 963c 1a11 643c c3cd 893d 806d 753d
000000f0: 70c7 5dbd d71f b63d cdcb 24bc a7bc 963c
00000100: 679a fa3b 709f 0cbd 6d30 8d3d 9bf3 a23d
00000110: 2068 843c 730b 19bc 8acd 533d c344 bf3d
00000120: f7c5 8e3d 87dc 9abc 6735 d9bb 73ef a4bd
00000130: cd4a db3c 4d30 99bb 7ab6 7ebd ba58 96bd
00000140: ad30 03bd 270f 2bbd 603e 32bd 67d2 64bb
00000150: a3b1 3d3d 9ac1 b33b 2368 463d adca eebc
00000160: 13a5 093d f30a dcbc 2d57 c53d b0b8 31bd
00000170: 034f 383d 13b3 40bd d8ee a1bd 87a7 dcbc
00000180: b70c 62bd 3d02 ac3d 1550 aabd 677e c53a
00000190: 93f0 09bd ed6c d83c 2029 233d 9a55 9eba
000001a0: 4f0e 81bd 3feb 833d e78f cb3b f36b 06bd
000001b0: 9a75 6eba 00a0 c43b 3a72 3bbd cdb5 bf3b
000001c0: 3079 0a3d 701a 393d 6a3e 51bd 7323 613c
000001d0: 0daf be3d e2e7 80bd e76d 483c 100d 89bd
000001e0: bb13 acbd d789 27bd d7b3 3a3d 8857 b5bd
000001f0: f7b1 a5bd adb0 d03c 87c6 a73d 6dad 09bd
00000200: 2dc2 093d 9a0c 9abd d09d 0d3d b3ce b8bb
00000210: 00ff b93d 8d94 32bc da62 6a3d 9fe5 ad3d
00000220: fa00 c03d fa6a 81bd 00a4 103b adcd 8ebc
00000230: 724b aa3d 5aec 5dbd a0ef cabd b7f9 633d
00000240: c06f 52bc 9ac0 7fbb 582e bc3d 737c 2f3c
00000250: b367 52bc a291 8c3d 7d29 343d 078d 53bd
00000260: f79f 703d dba2 c0bd ea6f a9bd fa23 53bd
00000270: cd6a c5ba fa0a 9d3d 3742 82bd 0aac 673d
00000280: f373 193d bd28 5a3d 339d 8c3a b399 5dbc
00000290: 7ad8 2e3d fdc2 8c3d ca6e 2e3d 9a41 90bd
000002a0: ade1 b9bc a7dd 75bd 733a 553d baff 39bd
000002b0: dd14 89bd f791 c3bd e736 bfbd a70d 643c
000002c0: a729 b13c 3328 24bb cfa7 babd ddd5 053d
000002d0: adea b8bc 00c4 fabc 5a86 46bd 4d96 dc3b
000002e0: 0a27 b83d fa8b 9e3c 97ab c3bd f21f 9dbd
000002f0: 200e eabc 3baf bf3d fa78 573d 2328 74bd
00000300: f386 923d 9a45 3d3a fa30 80bc 53a6 c9bc
00000310: bf49 83bd 0009 403d cd6f bfbd d33f d6bc
00000320: 6793 b0bd edd1 80bc b343 adbb f0a7 80bd
00000330: 40f4 7ebd c35d 65bd e7ce c23c 4df1 75bc
00000340: e729 99bd 7345 4fbc 7a5f acbc 0072 233d
00000350: 27f5 1b3d fa95 c5bc 9ac7 d3bc 4d5d 573c
00000360: 4766 47bd 006d dbbb 2d49 883c 074d 2ebd
00000370: dde5 563d 236f c1bd da46 203c 438f 6bbd
00000380: 9354 943d 2772 373d 97aa b4bd 3720 2cbd
00000390: d371 873d e76c 7fbd 7037 a7bd 2a1e 66bd
000003a0: 37da 33bd 33e5 f6ba af8a a43d eb38 c9bd
000003b0: 8ad1 bbbd 80b6 ddbc 9f4f aabd c7dc 623d
000003c0: c069 7dbc ddf1 253d 4a4a a9bd 1a98 c83c
000003d0: 105a 98bd 2045 06bd 37c6 8bbd 70bc 7cbd
000003e0: 4d1b 67bd 9a9d 773c fd3b 14bd 40b6 593d
000003f0: 708f 59bd c060 383c 2dd5 193d 4a15 9b3d

onnx::Add_15 f4 [1, 32, 512]
0.0 1.0 0.0 1.0 0.0 1.0 0.0 1.0
0.0 1.0 0.0 1.0 0.0 1.0 0.0 1.0
0.0 1.0 0.0 1.0 0.0 1.0 0.0 1.0
0.0 1.0 0.0 1.0 0.0 1.0 0.0 1.0
0.0 1.0 0.0 1.0 0.0 1.0 0.0 1.0
0.0 1.0 0.0 1.0 0.0 1.0 0.0 1.0
0.0 1.0 0.0 1.0 0.0 1.0 0.0 1.0
0.0 1.0 0.0 1.0 0.0 1.0 0.0 1.0
0.0 1.0 0.0 1.0 0.0 1.0 0.0 1.0
0.0 1.0 0.0 1.0 0.0 1.0 0.0 1.0
0.0 1.0 0.0 1.0 0.0 1.0 0.0 1.0
0.0 1.0 0.0 1.0 0.0 1.0 0.0 1.0
0.0 1.0 0.0 1.0 0.0 1.0 0.0 1.0
0.0 1.0 0.0 1.0 0.0 1.0 0.0 1.0
0.0 1.0 0.0 1.0 0.0 1.0 0.0 1.0
0.0 1.0 0.0 1.0 0.0 1.0 0.0 1.0
0.0 1.0 0.0 1.0 0.0 1.0 0.0 1.0
0.0 1.0 0.0 1.0 0.0 1.0 0.0 1.0
0.0 1.0 0.0 1.0 0.0 1.0 0.0 1.0
0.0 1.0 0.0 1.0 0.0 1.0 0.0 1.0
0.0 1.0 0.0 1.0 0.0 1.0 0.0 1.0
0.0 1.0 0.0 1.0 0.0 1.0 0.0 1.0
0.0 1.0 0.0 1.0 0.0 1.0 0.0 1.0
0.0 1.0 0.0 1.0 0.0 1.0 0.0 1.0
0.0 1.0 0.0 1.0 0.0 1.0 0.0 1.0
0.0 1.0 0.0 1.0 0.0 1.0 0.0 1.0
0.0 1.0 0.0 1.0 0.0 1.0 0.0 1.0
0.0 1.0 0.0 1.0 0.0 1.0 0.0 1.0
0.0 1.0 0.0 1.0 0.0 1.0 0.0 1.0
0.0 1.0 0.0 1.0 0.0 1.0 0.0 1.0
0.0 1.0 0.0 1.0 0.0 1.0 0.0 1.0
0.0 1.0 0.0 1.0 0.0 1.0 0.0 1.0
00000000: 0000 0000 0000 803f 0000 0000 0000 803f
00000010: 0000 0000 0000 803f 0000 0000 0000 803f
00000020: 0000 0000 0000 803f 0000 0000 0000 803f
00000030: 0000 0000 0000 803f 0000 0000 0000 803f
00000040: 0000 0000 0000 803f 0000 0000 0000 803f
00000050: 0000 0000 0000 803f 0000 0000 0000 803f
00000060: 0000 0000 0000 803f 0000 0000 0000 803f
00000070: 0000 0000 0000 803f 0000 0000 0000 803f
00000080: 0000 0000 0000 803f 0000 0000 0000 803f
00000090: 0000 0000 0000 803f 0000 0000 0000 803f
000000a0: 0000 0000 0000 803f 0000 0000 0000 803f
000000b0: 0000 0000 0000 803f 0000 0000 0000 803f
000000c0: 0000 0000 0000 803f 0000 0000 0000 803f
000000d0: 0000 0000 0000 803f 0000 0000 0000 803f
000000e0: 0000 0000 0000 803f 0000 0000 0000 803f
000000f0: 0000 0000 0000 803f 0000 0000 0000 803f
00000100: 0000 0000 0000 803f 0000 0000 0000 803f
00000110: 0000 0000 0000 803f 0000 0000 0000 803f
00000120: 0000 0000 0000 803f 0000 0000 0000 803f
00000130: 0000 0000 0000 803f 0000 0000 0000 803f
00000140: 0000 0000 0000 803f 0000 0000 0000 803f
00000150: 0000 0000 0000 803f 0000 0000 0000 803f
00000160: 0000 0000 0000 803f 0000 0000 0000 803f
00000170: 0000 0000 0000 803f 0000 0000 0000 803f
00000180: 0000 0000 0000 803f 0000 0000 0000 803f
00000190: 0000 0000 0000 803f 0000 0000 0000 803f
000001a0: 0000 0000 0000 803f 0000 0000 0000 803f
000001b0: 0000 0000 0000 803f 0000 0000 0000 803f
000001c0: 0000 0000 0000 803f 0000 0000 0000 803f
000001d0: 0000 0000 0000 803f 0000 0000 0000 803f
000001e0: 0000 0000 0000 803f 0000 0000 0000 803f
000001f0: 0000 0000 0000 803f 0000 0000 0000 803f
00000200: 0000 0000 0000 803f 0000 0000 0000 803f
00000210: 0000 0000 0000 803f 0000 0000 0000 803f
00000220: 0000 0000 0000 803f 0000 0000 0000 803f
00000230: 0000 0000 0000 803f 0000 0000 0000 803f
00000240: 0000 0000 0000 803f 0000 0000 0000 803f
00000250: 0000 0000 0000 803f 0000 0000 0000 803f
00000260: 0000 0000 0000 803f 0000 0000 0000 803f
00000270: 0000 0000 0000 803f 0000 0000 0000 803f
00000280: 0000 0000 0000 803f 0000 0000 0000 803f
00000290: 0000 0000 0000 803f 0000 0000 0000 803f
000002a0: 0000 0000 0000 803f 0000 0000 0000 803f
000002b0: 0000 0000 0000 803f 0000 0000 0000 803f
000002c0: 0000 0000 0000 803f 0000 0000 0000 803f
000002d0: 0000 0000 0000 803f 0000 0000 0000 803f
000002e0: 0000 0000 0000 803f 0000 0000 0000 803f
000002f0: 0000 0000 0000 803f 0000 0000 0000 803f
00000300: 0000 0000 0000 803f 0000 0000 0000 803f
00000310: 0000 0000 0000 803f 0000 0000 0000 803f
00000320: 0000 0000 0000 803f 0000 0000 0000 803f
00000330: 0000 0000 0000 803f 0000 0000 0000 803f
00000340: 0000 0000 0000 803f 0000 0000 0000 803f
00000350: 0000 0000 0000 803f 0000 0000 0000 803f
00000360: 0000 0000 0000 803f 0000 0000 0000 803f
00000370: 0000 0000 0000 803f 0000 0000 0000 803f
00000380: 0000 0000 0000 803f 0000 0000 0000 803f
00000390: 0000 0000 0000 803f 0000 0000 0000 803f
000003a0: 0000 0000 0000 803f 0000 0000 0000 803f
000003b0: 0000 0000 0000 803f 0000 0000 0000 803f
000003c0: 0000 0000 0000 803f 0000 0000 0000 803f
000003d0: 0000 0000 0000 803f 0000 0000 0000 803f
000003e0: 0000 0000 0000 803f 0000 0000 0000 803f
000003f0: 0000 0000 0000 803f 0000 0000 0000 803f
