NeuralMidiFXPlugin/NeuralMidiFXPlugin/PretrainedModelsSerialization/serializedONNX/model_1_output_layer.onnx (onnx, 18882 bytes, 2 tensors)

Linear.bias f4 [27]
00000000: 9bd5 4bbd b4e4 b4bd 425f b6bc 88a8 ffbd
00000010: 687f f4bd a0b4 07be 421f bcbd a4b2 12be
00000020: 5d3e dbbd 1ffb 01be eaa9 c1bd 3670 8ebd
00000030: d2ad dcbd 7208 d2bd 2e41 d6bd 7a32 97bd
00000040: a795 debd 0667 c9bd ff8e 9d3b 1600 103c
00000050: 2944 27bc 82b4 eeb9 3ed9 fa3b a2ce 0fbc
00000060: 8cb9 ec3c bc45 9c3b 044b 103d
-0.049764257 -0.08832684 -0.02226222 -0.12483317 -0.11938363 -0.13252497 -0.091856495 -0.14325958
-0.10705254 -0.12693451 -0.09456237 -0.06954996 -0.10775341 -0.10255517 -0.10461651 -0.073826745
-0.10868388 -0.09834103 0.004808306 0.008789083 -0.010209122 -0.00045529386 0.007655292 -0.008777292
0.02889707 0.004769055 0.03522779

onnx::MatMul_6 f4 [128, 27]
00000000: 22d4 b43d 8f4b 583e 1927 81bb ff1d b03d
00000010: 4331 3abd a341 9c3d 9e53 28bd 8722 6ebd
00000020: 4152 863e a1c8 0b3c ca1a 69bc 7002 f43b
00000030: b653 81bd 0dae 7cbd 90c1 78bd 055b 24be
00000040: 081f 5bbd 6af8 d63d 8fda a93b 2af3 073a
00000050: c6ac deb9 c593 a73b 06a6 07bc 4a13 aabb
00000060: 8e04 8f3c 501b d33b 09f0 e23a 6eef 41be
00000070: 842b da3c e42c 59bd ea3f 02bc 4a9f c53d
00000080: 8031 3a3e 066a d63d d273 2a3d 1bc0 f13b
00000090: 1a85 b5bd 3d7f 9b3a bc03 483d 0066 4c3c
000000a0: 23e1 103e 5b77 1d3b f424 ac3d 6beb 2a3d
000000b0: 49d8 0d3d 96d7 4f3c b6ff aeba 7755 913c
000000c0: 21d3 293c 7422 bc3b 1a23 833a 5b1e 8b3c
000000d0: 68b5 e73b 24d0 953c 291e 973d 510e fb3c
000000e0: cfee e3bd 183b 25bd d9ed cd3d bace b93d
000000f0: bf69 d23c b02f 813d 70c5 3c3d 1f48 2cbd
00000100: 5aa3 11be 4b91 f6bd 76ab 93bc 47de 8e3c
00000110: d899 78bd 01f4 8cbc 4343 dbbc 1786 803c
00000120: 70ad c93b 925b 2e3d c616 043c 8466 ff3b
00000130: a9cd 1c3c cb60 bf3b 4d16 c53a 8292 5a3b
00000140: 4835 50ba 81bb f23b 8240 8fbc 75c3 6d3c
00000150: 8aab b7bd 8c52 f2bd a280 88bd aacb 05bd
00000160: f2ea 1bbe 2bd1 febd 675d 78bd c770 3b3d
00000170: 8bbd 96bd 0476 08be 4b01 9dbd eeda 98bc
00000180: 20ed 89bd 12b6 13be fa94 ddbd 3d44 bb3c
00000190: 3fb6 273c 995c 213c eb68 823c b61a 4c3c
000001a0: 629a e33b fd78 8e3c f78d 073c 1ece 443c
000001b0: 4899 223d 275b 0ebd c083 6bbd 0986 dfbc
000001c0: a496 8d3d cfab 3c3e 498b 37bd 9734 503d
000001d0: 7ec0 a5b9 7759 943d 76cf dfbc e666 1ebb
000001e0: 5ec7 9e3d 9244 8f3c da15 e83d f048 52ba
000001f0: 3034 ad3c b66e 843d 1994 bcbc af00 2ebc
00000200: e992 23bc c9fb 023c e726 a9bb 9a46 e4bb
00000210: fbb7 2bbc d46b a33a 5603 15bc 69b8 21bd
00000220: 83ce ccbd 9e45 21be 4c4d d0bd 9e87 3cbd
00000230: b579 883d 9c83 57bc dbdf d13d 82aa 45be
00000240: 2772 8ebc 3ba0 90bd 588b 89bd 869a abbd
00000250: 125f 01bd 34ed cfbc b06e 833d 5585 1a3e
00000260: d501 dcbd 1f0d 1bbc daee e2bc df23 c1ba
00000270: 1092 083c e4a9 d7ba ac1b 67bb 027e 91bb
00000280: cba4 5e3c f34c 0bbc 7198 d6bd 6e3d 2f3e
00000290: d1f8 85bd e70e 8b3d eab8 3a3d 7c90 59bc
000002a0: 25fd 823d d2cc 713e af83 7fbd b804 abbd
000002b0: 2e29 2f3e c5f4 6f3d c340 ff3d 05ae 113e
000002c0: 7ed0 513d 1534 353d cf57 6d3e b855 0e3d
000002d0: f1fe af39 88b0 16bd 14f2 74bc 3da6 cf3b
000002e0: dbee a2bb 66db 273b 622b 133c 3547 c0ba
000002f0: f5df b5bb c338 183c 10f1 30be ccb1 293e
00000300: 23bb e43e 05dd 103e af9f c43d 43c9 b03d
00000310: 8e06 a53d 6da2 193d e4da 39bd 3e4a c6bc
00000320: 7175 183e 2d29 923e ffb5 1a3d 2432 643d
00000330: 24dc be3d 70a1 123e 2130 2b3d 1af2 623c
00000340: c639 1dbc 5d86 663c e0cb 123c bbc6 ef3a
00000350: a63e 12bb 4163 8f3b 7471 1b3b c29a 0b3c
00000360: 6fd0 b0be d22c d93b c33f 3e3e bfeb 5fbd
00000370: 978a d03d b182 b93d 179d 22bd 5983 63be
00000380: d5af d23d 409b 20be 0b8f 9e3d 59e7 033e
00000390: 093a 843d 1e2d 8d3c e68f 31bd 464a f13c
000003a0: fd18 c9bd f8ec 993d 5b28 7eba 4da8 4dbd
000003b0: 2acb 0dbb 1635 143c 7f71 cc3b f6c7 8d3b
000003c0: f4ed 8b3c dfed 6e3b 3da1 b93c b3f9 93bd
000003d0: 8d58 f9bc a36b 683e 7e32 1fbe 17c9 45bd
000003e0: 7da0 ac3c e871 203d 0fc2 c8bd fe2d 1dbc
000003f0: 27a7 59bd 4b2d a3bd cd0f 943d ea0c bbbc
0.088295236 0.21122573 -0.0039414284 0.08599471 -0.045457136 0.07629707 -0.04109537 -0.058138397
0.2623463 0.00853172 -0.014227578 0.0074465796 -0.06314795 -0.061689425 -0.06073147 -0.16050346
-0.05349639 0.104966 0.005183525 0.00051860756 -0.00042471866 0.005114051 -0.008279329 -0.0051902877
0.017458227 0.006442465 0.0017313968 -0.18938991 0.026632078 -0.053021327 -0.007949809 0.096495226
0.18182945 0.10469441 0.04161436 0.007377637 -0.08863278 0.0011863481 0.048831686 0.012475491
0.14148383 0.002402744 0.08405486 0.04172842 0.034630094 0.012685677 -0.0013351354 0.017740948
0.010365278 0.005741412 0.0010004968 0.016982248 0.007071186 0.018287726 0.073787995 0.030646475
-0.111295335 -0.04033956 0.100551315 0.09072633 0.02568519 0.06307924 0.04608673 -0.042060968
-0.1422247 -0.12039431 -0.018026095 0.017439974 -0.06069359 -0.017206194 -0.026765471 0.015688939
0.0061547086 0.042567797 0.00806207 0.0077942032 0.009570518 0.005840396 0.0015036553 0.0033351486
-0.000794251 0.007407606 -0.017486814 0.014511933 -0.08968265 -0.11832151 -0.0666516 -0.032664932
-0.15226343 -0.124422394 -0.06063595 0.04576185 -0.07360371 -0.1332627 -0.07666262 -0.018659081
-0.06734681 -0.14424923 -0.10819431 0.022859687 0.010236322 0.009848737 0.01591917 0.01245754
0.006945894 0.017391676 0.008273593 0.012012033 0.03969696 -0.0347549 -0.057498693 -0.027285593
0.06913498 0.18424915 -0.044810567 0.050831404 -0.0003161467 0.072436266 -0.027320605 -0.002417022
0.0775287 0.017488752 0.11332293 -0.0008021733 0.021143049 0.06466429 -0.023019837 -0.01062028
-0.009983757 0.007994601 -0.005162108 -0.006966424 -0.010480876 0.0012468048 -0.009095034 -0.039482508
-0.100003265 -0.15749213 -0.10170993 -0.046027772 0.06663839 -0.013153937 0.10247775 -0.19303325
-0.017388416 -0.070618115 -0.06716031 -0.083790824 -0.031584807 -0.025381662 0.06417596 0.15089925
-0.10742537 -0.0094635775 -0.027701784 -0.0014735422 0.008335605 -0.001645383 -0.0035264296 -0.00444007
0.013589094 -0.008502233 -0.10478295 0.17113277 -0.065415986 0.06789952 0.045586504 -0.013279077
0.0639594 0.23613289 -0.062381443 -0.083505094 0.17105553 0.05858304 0.12463524 0.1422654
0.051224224 0.044239122 0.23178028 0.034749717 0.00033568547 -0.036789447 -0.014950294 0.006336956
-0.0049723214 0.002561295 0.008982511 -0.0014669659 -0.0055503794 0.009290877 -0.17279458 0.1657173
0.44674024 0.14146812 0.0960077 0.086321376 0.08057891 0.037508417 -0.045374766 -0.024205323
0.1488855 0.2854704 0.03777122 0.05571188 0.09319332 0.14319396 0.041793946 0.013851667
-0.009596294 0.014070121 0.00895974 0.0018293479 -0.0022315173 0.0043758457 0.0023718746 0.008520784
-0.34534022 0.0066276575 0.1857901 -0.054668184 0.10182684 0.090581305 -0.039700594 -0.22218074
0.102874435 -0.15684223 0.07742127 0.12881221 0.06456382 0.017233428 -0.043350123 0.029454362
-0.09819219 0.07515901 -0.00096953445 -0.050209332 -0.0021635988 0.00904586 0.0062391157 0.0043268157
0.017081238 0.00364577 0.022659892 -0.07225361 -0.030437732 0.2269731 -0.15546605 -0.048287477
0.02107262 0.03917113 -0.09802639 -0.009593485 -0.053137925 -0.07967623 0.07229576 -0.022833306
